@charset "UTF-8";
@font-face {
  font-family: 'e-icons';
  font-style: normal;
  font-weight: normal;
  src: url("data:application/x-font-ttf;charset=utf-8;base64,…") format("truetype");
}

.e-control .e-icons {
  font-family: 'e-icons';
  font-style: normal;
  font-variant: normal;
  font-weight: normal;
  line-height: 1;
  speak: none;
  text-transform: none;
}

/*! common core */
.e-control,
.e-css {
  font-family: "Segoe UI", "GeezaPro", "DejaVu Serif", sans-serif, "-apple-system", "BlinkMacSystemFont";
  font-size: 14px;
  font-weight: normal;
}

.e-control .e-error {
  color: #a80000;
  font-family: "Segoe UI", "GeezaPro", "DejaVu Serif", sans-serif, "-apple-system", "BlinkMacSystemFont";
  font-size: 14px;
  font-weight: normal;
}

.e-control,
.e-control [class^='e-'],
.e-control [class*=' e-'] {
  box-sizing: border-box;
}

.e-control:focus,
.e-control *:focus {
  outline: none;
}

.e-control .e-rtl {
  direction: rtl;
}

.e-control .e-overlay {
  background-color: #383838;
  filter: alpha(opacity=50);
  height: 100%;
  opacity: .5;
  pointer-events: none;
  touch-action: none;
  width: 100%;
}

.e-control .e-hidden {
  display: none;
}

.e-control .e-disabled {
  background-image: none;
  cursor: default;
  filter: alpha(Opacity=35);
  opacity: .35;
}

.e-control .e-ul {
  list-style-type: none;
}

.e-control .e-prevent-select {
  user-select: none;
}

.e-control .e-warning {
  color: #d83b01;
}

.e-control .e-success {
  color: #107c10;
}

.e-control .e-information {
  color: #333;
}

.e-control .e-block-touch {
  touch-action: pinch-zoom;
}

/*! responsive desktop */
@media screen and (min-width: 961px) {
  .ts {
    border: 0;
  }
}

@media screen and (min-width: 1025px) {
  .ts {
    border: 0;
  }
}

@media screen and (min-width: 1281px) {
  .ts {
    border: 0;
  }
}

/*! responsive phone */
@media screen and (min-width: 320px) {
  .ts {
    border: 0;
  }
}

/*! responsive tablet */
@media (min-width: 481px) {
  .ts {
    border: 0;
  }
}

@media (min-width: 641px) {
  .ts {
    border: 0;
  }
}

/*! animation keyframes */
@keyframes SlideLeftOut {
  from {
    transform: translate(0, 0);
  }
  to {
    transform: translate(-100%, 0);
  }
}

@keyframes SlideLeftIn {
  from {
    transform: translate(-100%, 0);
  }
  to {
    transform: translate(0, 0);
  }
}

@keyframes SlideRightIn {
  from {
    transform: translate(100%, 0);
  }
  to {
    transform: translate(0, 0);
  }
}

@keyframes SlideRightOut {
  from {
    transform: translate(0, 0);
  }
  to {
    transform: translate(100%, 0);
  }
}

@keyframes SlideBottomIn {
  from {
    transform: translate(0, 100%);
  }
  to {
    transform: translate(0, 0);
  }
}

@keyframes SlideBottomOut {
  from {
    transform: translate(0, 0);
  }
  to {
    transform: translate(0, 100%);
  }
}

@keyframes SlideTopIn {
  from {
    transform: translate(0, -100%);
  }
  to {
    transform: translate(0, 0);
  }
}

@keyframes SlideTopOut {
  from {
    transform: translate(0, 0);
  }
  to {
    transform: translate(0, -100%);
  }
}

@keyframes SlideRight {
  from {
    width: 0;
  }
  to {
    width: 100%;
  }
}

@keyframes SlideLeft {
  from {
    width: 100%;
  }
  to {
    width: 0;
  }
}

@keyframes SlideDown {
  from {
    height: 0;
  }
  to {
    height: 100%;
  }
}

@keyframes SlideUp {
  from {
    height: 100%;
  }
  to {
    height: 0;
  }
}

@keyframes FadeIn {
  0% {
    filter: alpha(opacity=0);
    opacity: 0;
  }
  100% {
    filter: alpha(opacity=100);
    opacity: 1;
  }
}

@keyframes FadeOut {
  from {
    filter: alpha(opacity=100);
    opacity: 1;
  }
  to {
    filter: alpha(opacity=0);
    opacity: 0;
  }
}

@keyframes ZoomIn {
  from {
    transform: translate(0, 0) scale(0);
  }
  to {
    transform: translate(0, 0) scale(1);
  }
}

@keyframes ZoomOut {
  from {
    transform: translate(0, 0) scale(1);
  }
  to {
    transform: translate(0, 0) scale(0);
  }
}

@keyframes FadeZoomIn {
  from {
    filter: alpha(opacity=0);
    opacity: 0;
    transform: scale(0);
  }
  to {
    filter: alpha(opacity=100);
    opacity: 1;
    transform: scale(1);
  }
}

@keyframes FadeZoomOut {
  from {
    filter: alpha(opacity=100);
    opacity: 1;
    transform: scale(1);
  }
  to {
    filter: alpha(opacity=0);
    opacity: 0;
    transform: scale(0);
  }
}

@keyframes FlipRightDownIn {
  from {
    transform: perspective(400px) rotateY(-180deg);
    transform-origin: right center;
    transform-style: preserve-3d;
  }
  to {
    transform: rotateY(0deg);
    transform-origin: right center;
    transform-style: preserve-3d;
  }
}

@keyframes FlipRightDownOut {
  from {
    transform: perspective(400px) rotateY(0deg);
    transform-origin: right center;
    transform-style: preserve-3d;
  }
  to {
    transform: rotateY(-180deg);
    transform-origin: right center;
    transform-style: preserve-3d;
  }
}

@keyframes FlipRightUpIn {
  from {
    transform: perspective(400px) rotateY(135deg);
    transform-origin: right center;
    transform-style: preserve-3d;
  }
  to {
    transform: rotateY(0deg);
    transform-origin: right center;
    transform-style: preserve-3d;
  }
}

@keyframes FlipRightUpOut {
  from {
    transform: perspective(400px) rotateY(0deg);
    transform-origin: right center;
    transform-style: preserve-3d;
  }
  to {
    transform: rotateY(135deg);
    transform-origin: right center;
    transform-style: preserve-3d;
  }
}

@keyframes FlipLeftDownIn {
  from {
    transform: perspective(400px) rotateY(-180deg);
    transform-origin: left center;
    transform-style: preserve-3d;
  }
  to {
    transform: rotateY(0deg);
    transform-origin: left center;
    transform-style: preserve-3d;
  }
}

@keyframes FlipLeftDownOut {
  from {
    transform: perspective(400px) rotateY(0deg);
    transform-origin: left center;
    transform-style: preserve-3d;
  }
  to {
    transform: rotateY(135deg);
    transform-origin: left center;
    transform-style: preserve-3d;
  }
}

@keyframes FlipLeftUpIn {
  from {
    transform: perspective(400px) rotateY(-135deg);
    transform-origin: left center;
    transform-style: preserve-3d;
  }
  to {
    transform: rotateY(0deg);
    transform-origin: left center;
    transform-style: preserve-3d;
  }
}

@keyframes FlipLeftUpOut {
  from {
    transform: perspective(400px) rotateY(0deg);
    transform-origin: left center;
    transform-style: preserve-3d;
  }
  to {
    transform: rotateY(135deg) perspective(200px);
    transform-origin: left center;
    transform-style: preserve-3d;
  }
}

@keyframes FlipYLeftIn {
  from {
    filter: alpha(opacity=0);
    opacity: 0;
    transform: perspective(400px) rotateY(180deg);
    transform-origin: center center;
    transform-style: preserve-3d;
  }
  50% {
    transform: perspective(700px) rotateY(90deg);
  }
  to {
    filter: alpha(opacity=100);
    opacity: 1;
    transform: rotateY(0deg);
    transform-origin: center center;
    transform-style: preserve-3d;
  }
}

@keyframes FlipYLeftOut {
  from {
    filter: alpha(opacity=100);
    opacity: 1;
    transform: perspective(400px) rotateY(0deg);
    transform-origin: center center;
    transform-style: preserve-3d;
  }
  50% {
    transform: perspective(700px) rotateY(90deg);
  }
  75% {
    transform: perspective(850px) rotateY(125deg);
  }
  to {
    filter: alpha(opacity=0);
    opacity: 0;
    transform: rotateY(180deg);
    transform-origin: center center;
    transform-style: preserve-3d;
  }
}

@keyframes FlipYRightIn {
  from {
    filter: alpha(opacity=0);
    opacity: 0;
    transform: perspective(400px) rotateY(-180deg);
    transform-origin: center center;
    transform-style: preserve-3d;
  }
  50% {
    transform: perspective(700px) rotateY(-90deg);
  }
  to {
    filter: alpha(opacity=100);
    opacity: 1;
    transform: rotateY(0deg);
    transform-origin: center center;
    transform-style: preserve-3d;
  }
}

@keyframes FlipYRightOut {
  from {
    filter: alpha(opacity=100);
    opacity: 1;
    transform: perspective(400px) rotateY(0deg);
    transform-origin: center center;
    transform-style: preserve-3d;
  }
  50% {
    transform: perspective(700px) rotateY(-90deg);
  }
  to {
    filter: alpha(opacity=0);
    opacity: 0;
    transform: rotateY(-180deg);
    transform-origin: center center;
    transform-style: preserve-3d;
  }
}

@keyframes FlipXDownIn {
  from {
    filter: alpha(opacity=0);
    opacity: 0;
    transform: perspective(400px) rotateX(180deg);
    transform-origin: center center;
    transform-style: preserve-3d;
  }
  50% {
    transform: perspective(700px) rotateX(90deg);
  }
  to {
    filter: alpha(opacity=100);
    opacity: 1;
    transform: rotateX(0deg);
    transform-origin: center center;
    transform-style: preserve-3d;
  }
}

@keyframes FlipXDownOut {
  from {
    filter: alpha(opacity=100);
    opacity: 1;
    transform: perspective(400px) rotateX(0deg);
    transform-origin: center center;
    transform-style: preserve-3d;
  }
  50% {
    transform: perspective(700px) rotateX(90deg);
  }
  75% {
    transform: perspective(850px) rotateX(125deg);
  }
  to {
    filter: alpha(opacity=0);
    opacity: 0;
    transform: rotateX(180deg);
    transform-origin: center center;
    transform-style: preserve-3d;
  }
}

@keyframes FlipXUpIn {
  from {
    filter: alpha(opacity=0);
    opacity: 0;
    transform: perspective(400px) rotateX(-180deg);
    transform-origin: center center;
    transform-style: preserve-3d;
  }
  50% {
    transform: perspective(700px) rotateX(-90deg);
  }
  to {
    filter: alpha(opacity=100);
    opacity: 1;
    transform: rotateX(0deg);
    transform-origin: center center;
    transform-style: preserve-3d;
  }
}

@keyframes FlipXUpOut {
  from {
    filter: alpha(opacity=100);
    opacity: 1;
    transform: perspective(400px) rotateX(0deg);
    transform-origin: center center;
    transform-style: preserve-3d;
  }
  50% {
    transform: perspective(700px) rotateX(-90deg);
  }
  to {
    filter: alpha(opacity=0);
    opacity: 0;
    transform: rotateX(-180deg);
    transform-origin: center center;
    transform-style: preserve-3d;
  }
}

.e-control .e-ripple,
.e-control .e-ripple-style {
  overflow: hidden;
  position: relative;
  transform: translate3d(0, 0, 0);
}

.e-control .e-ripple-element,
.e-control .e-ripple-style::after {
  background-color: rgba(0, 0, 0, 0.1);
  border-radius: 100%;
  overflow: hidden;
  pointer-events: none;
  position: absolute;
  transform: scale(0);
  transition: opacity, transform 0ms cubic-bezier(0, 0.1, 0.2, 1);
}

.e-control .e-ripple-style::after {
  background: rgba(0, 0, 0, 0.3);
  content: '';
  display: block;
  height: 50%;
  left: 25%;
  opacity: 0;
  top: 25%;
  transform: scale(3);
  transition: transform .5s, opacity .5s;
  width: 50%;
}

.e-control .e-ripple-style:active::after {
  opacity: 1;
  transform: scale(0);
  transition: 0s;
}

/*! component icons */
.e-control.e-pager .e-icon-last::before,
.e-grid-menu .e-icon-last::before {
  content: "";
}

.e-control.e-pager .e-icon-first::before,
.e-grid-menu .e-icon-first::before {
  content: "";
}

.e-control.e-pager .e-icon-prev::before,
.e-grid-menu .e-icon-prev::before {
  content: "";
}

.e-control.e-pager .e-icon-next::before,
.e-grid-menu .e-icon-next::before {
  content: "";
}

.e-control.e-pager.e-rtl .e-icon-last.e-lastpage::before,
.e-control.e-pager.e-rtl .e-icon-last.e-lastpage:hover,
.e-control.e-pager.e-rtl .e-icon-last.e-lastpagedisabled::before,
.e-grid-menu.e-rtl .e-icon-last.e-lastpage::before,
.e-grid-menu.e-rtl .e-icon-last.e-lastpage:hover,
.e-grid-menu.e-rtl .e-icon-last.e-lastpagedisabled::before {
  content: "";
}

.e-control.e-pager.e-rtl .e-icon-first.e-firstpage::before,
.e-control.e-pager.e-rtl .e-icon-first.e-firstpage:hover,
.e-control.e-pager.e-rtl .e-icon-first.e-firstpagedisabled::before,
.e-grid-menu.e-rtl .e-icon-first.e-firstpage::before,
.e-grid-menu.e-rtl .e-icon-first.e-firstpage:hover,
.e-grid-menu.e-rtl .e-icon-first.e-firstpagedisabled::before {
  content: "";
}

.e-control.e-pager.e-rtl .e-icon-prev.e-prevpage::before,
.e-control.e-pager.e-rtl .e-icon-prev.e-prevpage:hover,
.e-control.e-pager.e-rtl .e-icon-prev.e-prevpagedisabled::before,
.e-grid-menu.e-rtl .e-icon-prev.e-prevpage::before,
.e-grid-menu.e-rtl .e-icon-prev.e-prevpage:hover,
.e-grid-menu.e-rtl .e-icon-prev.e-prevpagedisabled::before {
  content: "";
}

.e-control.e-pager.e-rtl .e-icon-next.e-nextpage::before,
.e-control.e-pager.e-rtl .e-icon-next.e-nextpage:hover,
.e-control.e-pager.e-rtl .e-icon-next.e-nextpagedisabled::before,
.e-grid-menu.e-rtl .e-icon-next.e-nextpage::before,
.e-grid-menu.e-rtl .e-icon-next.e-nextpage:hover,
.e-grid-menu.e-rtl .e-icon-next.e-nextpagedisabled::before {
  content: "";
}

/*! Pager layout */
.e-bigger .e-control.e-pager,
.e-control.e-pager.e-bigger {
  font-size: 14px;
  padding: 14px 0 10px;
}

.e-bigger .e-control.e-pager div.e-icons,
.e-control.e-pager.e-bigger div.e-icons {
  font-size: 13px;
  vertical-align: "";
}

.e-bigger .e-control.e-pager div.e-parentmsgbar,
.e-control.e-pager.e-bigger div.e-parentmsgbar {
  padding-bottom: 8px;
  padding-right: 13px;
  padding-top: 9px;
}

.e-bigger .e-control.e-pager .e-pagerdropdown,
.e-control.e-pager.e-bigger .e-pagerdropdown {
  height: 40px;
  margin: -44px 0 0 15px;
}

.e-bigger .e-control.e-pager .e-pagerconstant,
.e-control.e-pager.e-bigger .e-pagerconstant {
  margin-bottom: 17px;
  margin-left: 10px;
}

.e-bigger .e-control.e-pager .e-pagercontainer,
.e-control.e-pager.e-bigger .e-pagercontainer {
  margin: 5px 8px 5px 13px;
}

.e-bigger .e-control.e-pager.e-rtl .e-pagercontainer,
.e-control.e-pager.e-bigger.e-rtl .e-pagercontainer {
  margin: 0 0 -4px 0;
  margin-top: 5px;
}

@media (max-width: 769px) {
  .e-bigger .e-control.e-pager,
  .e-control.e-pager.e-bigger {
    padding: 19px 0;
  }

  .e-bigger .e-control.e-pager.e-rtl div.e-parentmsgbar,
  .e-control.e-pager.e-bigger.e-rtl div.e-parentmsgbar {
    margin-right: 0;
  }

  .e-bigger .e-control.e-pager div.e-parentmsgbar,
  .e-control.e-pager.e-bigger div.e-parentmsgbar {
    padding: 0;
  }
}

.e-bigger .e-control.e-pager .e-next.e-icons.e-icon-next.e-nextpagedisabled.e-disable,
.e-bigger .e-control.e-pager .e-next.e-icons.e-icon-next.e-nextpage.e-pager-default,
.e-control.e-pager.e-bigger .e-next.e-icons.e-icon-next.e-nextpagedisabled.e-disable,
.e-control.e-pager.e-bigger .e-next.e-icons.e-icon-next.e-nextpage.e-pager-default {
  margin-left: 0;
}

.e-bigger .e-control.e-pager.e-rtl .e-next.e-icons.e-icon-next.e-nextpagedisabled.e-disable,
.e-bigger .e-control.e-pager.e-rtl e-next.e-icons.e-icon-next.e-nextpage.e-pager-default,
.e-control.e-pager.e-bigger.e-rtl .e-next.e-icons.e-icon-next.e-nextpagedisabled.e-disable,
.e-control.e-pager.e-bigger.e-rtl e-next.e-icons.e-icon-next.e-nextpage.e-pager-default {
  margin-left: 0;
  margin-right: 0;
}

.e-bigger .e-control.e-pager.e-rtl div.e-parentmsgbar,
.e-control.e-pager.e-bigger.e-rtl div.e-parentmsgbar {
  margin-left: 10px;
  margin-top: 1px;
}

.e-bigger .e-control.e-pager .e-numericitem,
.e-control.e-pager.e-bigger .e-numericitem {
  margin: 0;
}

.e-bigger .e-control.e-pager .e-pp.e-spacing,
.e-bigger .e-control.e-pager .e-np.e-spacing,
.e-bigger .e-control.e-pager .e-pp.e-spacing:hover,
.e-bigger .e-control.e-pager .e-np.e-spacing:hover,
.e-control.e-pager.e-bigger .e-pp.e-spacing,
.e-control.e-pager.e-bigger .e-np.e-spacing,
.e-control.e-pager.e-bigger .e-pp.e-spacing:hover,
.e-control.e-pager.e-bigger .e-np.e-spacing:hover {
  padding: 2px 10px 11px;
}

.e-bigger .e-control.e-pager .e-spacing,
.e-bigger .e-control.e-pager .e-numericitem:hover,
.e-bigger .e-control.e-pager .e-currentitem,
.e-control.e-pager.e-bigger .e-spacing,
.e-control.e-pager.e-bigger .e-numericitem:hover,
.e-control.e-pager.e-bigger .e-currentitem {
  border-radius: 0;
  padding: 8px 11px;
}

.e-bigger .e-control.e-pager .e-numericitem:hover:not(.e-np):not(.e-pp):not(.e-active),
.e-control.e-pager.e-bigger .e-numericitem:hover:not(.e-np):not(.e-pp):not(.e-active) {
  padding: 8px 11px;
}

.e-bigger .e-control.e-pager.e-rtl .e-spacing,
.e-bigger .e-control.e-pager.e-rtl .e-numericitem:hover,
.e-bigger .e-control.e-pager.e-rtl .e-currentitem,
.e-control.e-pager.e-bigger.e-rtl .e-spacing,
.e-control.e-pager.e-bigger.e-rtl .e-numericitem:hover,
.e-control.e-pager.e-bigger.e-rtl .e-currentitem {
  margin: 0;
  padding: 10px 14px;
}

.e-bigger .e-control.e-pager.e-rtl .e-numericitem:hover:not(.e-np):not(.e-pp):not(.e-active),
.e-control.e-pager.e-bigger.e-rtl .e-numericitem:hover:not(.e-np):not(.e-pp):not(.e-active) {
  padding: 10px 14px;
}

.e-bigger .e-control.e-pager.e-rtl .e-pp,
.e-bigger .e-control.e-pager.e-rtl .e-np,
.e-bigger .e-control.e-pager.e-rtl .e-pp:hover,
.e-bigger .e-control.e-pager.e-rtl .e-np:hover,
.e-control.e-pager.e-bigger.e-rtl .e-pp,
.e-control.e-pager.e-bigger.e-rtl .e-np,
.e-control.e-pager.e-bigger.e-rtl .e-pp:hover,
.e-control.e-pager.e-bigger.e-rtl .e-np:hover {
  margin-top: -10px;
}

.e-bigger .e-control.e-pager.e-rtl .e-pagerdropdown,
.e-control.e-pager.e-bigger.e-rtl .e-pagerdropdown {
  margin: -22px 25px 0 0;
}

.e-bigger .e-control.e-pager.e-rtl .e-pagerconstant,
.e-control.e-pager.e-bigger.e-rtl .e-pagerconstant {
  margin: 5px 10px 8px 0;
}

.e-bigger .e-control.e-pager .e-pagercontainer .e-firstpage,
.e-bigger .e-control.e-pager .e-pagercontainer .e-prevpage,
.e-bigger .e-control.e-pager .e-pagercontainer .e-firstpagedisabled,
.e-bigger .e-control.e-pager .e-pagercontainer .e-prevpagedisabled,
.e-bigger .e-control.e-pager .e-pagercontainer .e-nextpage,
.e-bigger .e-control.e-pager .e-pagercontainer .e-lastpage,
.e-bigger .e-control.e-pager .e-pagercontainer .e-nextpagedisabled,
.e-bigger .e-control.e-pager .e-pagercontainer .e-lastpagedisabled,
.e-control.e-pager.e-bigger .e-pagercontainer .e-firstpage,
.e-control.e-pager.e-bigger .e-pagercontainer .e-prevpage,
.e-control.e-pager.e-bigger .e-pagercontainer .e-firstpagedisabled,
.e-control.e-pager.e-bigger .e-pagercontainer .e-prevpagedisabled,
.e-control.e-pager.e-bigger .e-pagercontainer .e-nextpage,
.e-control.e-pager.e-bigger .e-pagercontainer .e-lastpage,
.e-control.e-pager.e-bigger .e-pagercontainer .e-nextpagedisabled,
.e-control.e-pager.e-bigger .e-pagercontainer .e-lastpagedisabled {
  margin-right: 0;
  padding: 10px;
}

.e-control.e-pager {
  border-style: solid;
  border-width: 1px;
  display: inline-block;
  font-size: 13px;
  padding: 13px 0 12px;
  white-space: normal;
  width: 100%;
}

.e-control.e-pager [class^='e-'] {
  box-sizing: border-box;
}

.e-control.e-pager div.e-parentmsgbar {
  float: right;
  padding-bottom: 9px;
  padding-right: 10px;
  padding-top: 9px;
}

.e-control.e-pager .e-pagesizes {
  display: inline;
}

.e-control.e-pager .e-pagerdropdown {
  display: inline-block;
  height: 32px;
  margin-left: 19px;
  margin-top: -20px;
  overflow: hidden;
  vertical-align: middle;
  width: 90px;
}

.e-control.e-pager .e-pagerconstant {
  display: inline-block;
  margin: 0 0 4px 8px;
  overflow: hidden;
  width: auto;
}

.e-control.e-pager .e-icons {
  font-size: 12px;
}

.e-control.e-pager .e-numericitem {
  border-right-style: solid;
  border-right-width: 0;
  display: inline-block;
  line-height: 1;
  margin-right: 0;
  min-width: 30px;
  padding: 0;
  text-align: center;
}

.e-control.e-pager div.e-pagermsgdiv {
  padding-right: 6px;
  padding-top: 4px;
  text-align: right;
}

.e-control.e-pager .e-firstpagedisabled,
.e-control.e-pager .e-prevpagedisabled,
.e-control.e-pager .e-nextpagedisabled,
.e-control.e-pager .e-lastpagedisabled {
  opacity: .3;
}

.e-control.e-pager .e-spacing,
.e-control.e-pager .e-numericitem:hover,
.e-control.e-pager .e-currentitem {
  border-radius: 0;
  cursor: pointer;
  padding: 9px 3px 8px 2px;
  text-decoration: none;
}

.e-control.e-pager .e-numericitem:hover:not(.e-np):not(.e-pp):not(.e-active) {
  padding: 9px 3px 8px 2px;
}

.e-control.e-pager .e-currentitem {
  font-style: normal;
  font-variant: normal;
  font-weight: normal;
}

.e-control.e-pager div,
.e-control.e-pager a {
  display: inline;
  user-select: none;
}

.e-control.e-pager .e-icons::before {
  display: inline-block;
}

.e-control.e-pager .e-pagercontainer .e-firstpage,
.e-control.e-pager .e-pagercontainer .e-prevpage,
.e-control.e-pager .e-pagercontainer .e-firstpagedisabled,
.e-control.e-pager .e-pagercontainer .e-prevpagedisabled,
.e-control.e-pager .e-pagercontainer .e-nextpage,
.e-control.e-pager .e-pagercontainer .e-lastpage,
.e-control.e-pager .e-pagercontainer .e-nextpagedisabled,
.e-control.e-pager .e-pagercontainer .e-lastpagedisabled {
  border-right-style: solid;
  border-right-width: 0;
  display: inline-block;
  margin-right: 0;
  margin-top: 0;
  min-width: 26px;
  padding: 12px 10px 8px;
}

.e-control.e-pager .e-pagercontainer .e-lastpage,
.e-control.e-pager .e-pagercontainer .e-lastpagedisabled {
  border-right: 0;
}

.e-control.e-pager .e-firstpage:hover,
.e-control.e-pager .e-prevpage:hover,
.e-control.e-pager .e-lastpage:hover,
.e-control.e-pager .e-nextpage:hover {
  cursor: pointer;
  text-decoration: none;
}

.e-control.e-pager a.e-nextprevitemdisabled {
  display: none;
  margin-left: 0;
  margin-right: 0;
  padding-left: 5px;
  padding-right: 5px;
  text-decoration: none;
}

.e-control.e-pager .e-next.e-icons.e-icon-next.e-nextpagedisabled.e-disable,
.e-control.e-pager .e-next.e-icons.e-icon-next.e-nextpage.e-pager-default {
  margin-left: 0;
}

.e-control.e-pager .e-pagercontainer {
  border-radius: 4px;
  border-style: solid;
  border-width: 0;
  display: inline-block;
  margin: 0 6px -3px;
  overflow: hidden;
}

.e-control.e-pager .e-lastpage:Hover {
  border-radius: 0;
}

.e-control.e-pager .e-firstpage:Hover {
  border-radius: 0;
}

.e-control.e-pager .e-pagermessage,
.e-control.e-pager .e-pagerexternalmsg {
  display: block;
  margin: 6px;
  overflow: hidden;
  text-overflow: ellipsis;
}

.e-control.e-pager .e-mfirst,
.e-control.e-pager .e-mprev,
.e-control.e-pager .e-mnext,
.e-control.e-pager .e-mlast {
  display: none;
}

.e-control.e-pager .e-mprev {
  text-indent: -3px;
}

.e-control.e-pager .e-mnext {
  text-indent: -2px;
}

.e-control.e-pager .e-mfirst,
.e-control.e-pager .e-mprev,
.e-control.e-pager .e-mnext,
.e-control.e-pager .e-mlast {
  -webkit-tap-highlight-color: #fff;
}

.e-control.e-pager .e-pp,
.e-control.e-pager .e-np,
.e-control.e-pager .e-pp:hover,
.e-control.e-pager .e-np:hover {
  font-size: 20px;
  font-weight: normal;
  letter-spacing: 0;
  padding: 0 6px 10px;
}

@media (max-width: 769px) {
  .e-control.e-pager {
    padding: 13px 0;
  }

  .e-control.e-pager div.e-parentmsgbar {
    box-sizing: border-box;
    display: inline-block;
    float: initial;
    padding-bottom: 0;
    padding-right: 0;
    padding-top: 0;
    text-align: center;
    vertical-align: top;
    width: calc(60% - 48px);
  }

  .e-control.e-pager .e-pagesizes {
    display: none;
  }

  .e-control.e-pager .e-pagecountmsg {
    display: none;
  }

  .e-control.e-pager .e-pagercontainer {
    display: none;
  }

  .e-control.e-pager .e-icons {
    font-size: 11px;
  }

  .e-control.e-pager .e-mfirst,
  .e-control.e-pager .e-mprev,
  .e-control.e-pager .e-mnext,
  .e-control.e-pager .e-mlast {
    border: 0;
    box-sizing: border-box;
    display: inline-block;
    padding: 1% 5%;
  }

  .e-control.e-pager .e-mfirst {
    margin-right: 4px;
    text-align: right;
    width: calc(10% + 11px);
  }

  .e-control.e-pager .e-mprev {
    margin: 0 4px;
    text-align: right;
    width: 10%;
  }

  .e-control.e-pager .e-mnext {
    margin: 0 4px;
    text-align: left;
    width: 10%;
  }

  .e-control.e-pager .e-mlast {
    margin-left: 4px;
    text-align: left;
    width: calc(10% + 11px);
  }
}

.e-control.e-pager.e-rtl {
  direction: rtl;
}

.e-control.e-pager.e-rtl .e-pagercontainer,
.e-control.e-pager.e-rtl div,
.e-control.e-pager.e-rtl a {
  float: initial;
}

.e-control.e-pager.e-rtl .e-parentmsgbar {
  float: left;
  margin-left: 8px;
}

.e-control.e-pager.e-rtl .e-pagerdropdown {
  margin: -20px 25px 0 0;
}

.e-control.e-pager.e-rtl .e-pagerconstant {
  margin: 8px;
}

.e-control.e-pager.e-rtl .e-pagerexternalmsg {
  float: none;
}

.e-control.e-pager.e-rtl .e-pagercontainer {
  float: none;
  margin: 0 6px -4px 0;
  padding: 0;
}

.e-control.e-pager.e-rtl .e-firstpage,
.e-control.e-pager.e-rtl .e-prevpage,
.e-control.e-pager.e-rtl .e-firstpagedisabled,
.e-control.e-pager.e-rtl .e-prevpagedisabled,
.e-control.e-pager.e-rtl .e-nextpage,
.e-control.e-pager.e-rtl .e-lastpage,
.e-control.e-pager.e-rtl .e-nextpagedisabled,
.e-control.e-pager.e-rtl .e-lastpagedisabled {
  padding: 11px 9px 8px 2px;
}

.e-control.e-pager.e-rtl .e-firstpage::before,
.e-control.e-pager.e-rtl .e-firstpage:hover,
.e-control.e-pager.e-rtl .e-firstpagedisabled::before {
  content: '\e701';
}

.e-control.e-pager.e-rtl .e-prevpage::before,
.e-control.e-pager.e-rtl .e-prevpage:hover,
.e-control.e-pager.e-rtl .e-prevpagedisabled::before {
  content: '\e848';
}

.e-control.e-pager.e-rtl .e-nextpage::before,
.e-control.e-pager.e-rtl .e-nextpage:hover,
.e-control.e-pager.e-rtl .e-nextpagedisabled::before {
  content: '\e84b';
}

.e-control.e-pager.e-rtl .e-lastpage::before,
.e-control.e-pager.e-rtl .e-lastpage:hover,
.e-control.e-pager.e-rtl .e-lastpagedisabled::before {
  content: '\e716';
}

.e-control.e-pager.e-rtl .e-nextpage,
.e-control.e-pager.e-rtl .e-nextpagedisabled,
.e-control.e-pager.e-rtl .e-prevpage,
.e-control.e-pager.e-rtl .e-prevpagedisabled,
.e-control.e-pager.e-rtl .e-firstpage,
.e-control.e-pager.e-rtl .e-firstpagedisabled {
  border-left-style: solid;
  border-left-width: 0;
}

.e-control.e-pager.e-rtl .e-nextpage,
.e-control.e-pager.e-rtl .e-nextpagedisabled,
.e-control.e-pager.e-rtl .e-prevpage,
.e-control.e-pager.e-rtl .e-prevpagedisabled {
  border-right-style: none;
  border-right-width: 0;
}

.e-control.e-pager.e-rtl .e-firstpage,
.e-control.e-pager.e-rtl .e-firstpagedisabled {
  border-right: medium none;
}

.e-control.e-pager.e-rtl .e-firstpage:hover {
  border-radius: 0 4px 4px 0;
}

.e-control.e-pager.e-rtl .e-lastpage:hover {
  border-radius: 4px 0 0 4px;
}

.e-control.e-pager.e-rtl .e-numericcontainer {
  float: none;
}

.e-control.e-pager.e-rtl .e-numericitem {
  border-left-style: solid;
  border-left-width: 0;
  border-right-style: none;
  border-right-width: 0;
  min-width: 26px;
}

.e-control.e-pager.e-rtl .e-next.e-icons.e-icon-next.e-nextpagedisabled.e-disable, .e-control.e-pager.e-rtl.e-next.e-icons.e-icon-next.e-nextpage.e-pager-default {
  margin-left: 0;
  margin-right: 0;
}

.e-control.e-pager.e-rtl .e-spacing,
.e-control.e-pager.e-rtl .e-numericitem:hover,
.e-control.e-pager.e-rtl .e-currentitem {
  margin: 0;
  padding: 9px 3px 8px 2px;
}

.e-control.e-pager.e-rtl .e-numericitem:hover:not(.e-np):not(.e-pp):not(.e-active) {
  padding: 9px 3px 8px 2px;
}

.e-control.e-pager.e-rtl .e-pp,
.e-control.e-pager.e-rtl .e-np,
.e-control.e-pager.e-rtl .e-pp:hover,
.e-control.e-pager.e-rtl .e-np:hover {
  margin-top: 2px;
  padding: 0 11px 9px;
}

@media (max-width: 769px) {
  .e-control.e-pager.e-rtl .e-mfirst,
  .e-control.e-pager.e-rtl .e-mprev,
  .e-control.e-pager.e-rtl .e-mnext,
  .e-control.e-pager.e-rtl .e-mlast {
    border: 0;
  }

  .e-control.e-pager.e-rtl.e-rtl div.e-parentmsgbar {
    float: initial;
    margin-left: 0;
    margin-top: 6px;
  }

  .e-control.e-pager.e-rtl .e-parentmsgbar {
    float: right;
  }
}

/*! Pager theme */
.e-control.e-pager {
  background-color: #fff;
  border-color: #eaeaea;
  color: #333;
  opacity: 1;
}

.e-control.e-pager div.e-icons {
  color: #333;
}

.e-control.e-pager .e-pager-default:hover {
  background: "";
  color: #333;
  opacity: 1;
}

.e-control.e-pager .e-parentmsgbar {
  font-weight: normal;
}

.e-control.e-pager .e-spacing {
  color: #333;
  opacity: 1;
}

.e-control.e-pager .e-numericitem:hover {
  color: #333;
  opacity: 1;
}

.e-control.e-pager .e-numericitem:hover:not(.e-np):not(.e-pp):not(.e-active) {
  border: 0 solid #eaeaea;
}

.e-control.e-pager .e-numericitem:not(.e-active):not(.e-np):not(.e-pp):hover {
  background-color: #f4f4f4;
  opacity: 1;
}

.e-control.e-pager .e-numericitem {
  background: #fff;
  border-right-color: #eaeaea;
  color: #333;
}

.e-control.e-pager .e-prevpagedisabled,
.e-control.e-pager .e-prevpage,
.e-control.e-pager .e-nextpage,
.e-control.e-pager .e-nextpagedisabled,
.e-control.e-pager .e-lastpagedisabled,
.e-control.e-pager .e-lastpage,
.e-control.e-pager .e-firstpage,
.e-control.e-pager .e-firstpagedisabled {
  background-color: #fff;
  color: #333;
}

.e-control.e-pager .e-lastpage,
.e-control.e-pager .e-firstpage {
  background-color: transparent;
}

.e-control.e-pager .e-pagercontainer {
  background-color: #fff;
  border-color: #eaeaea;
}

.e-control.e-pager .e-firstpage,
.e-control.e-pager .e-prevpage,
.e-control.e-pager .e-firstpagedisabled,
.e-control.e-pager .e-prevpagedisabled,
.e-control.e-pager .e-nextpage,
.e-control.e-pager .e-lastpage,
.e-control.e-pager .e-nextpagedisabled,
.e-control.e-pager .e-lastpagedisabled {
  border-right-color: #eaeaea;
}

.e-control.e-pager .e-currentitem,
.e-control.e-pager .e-currentitem:hover {
  background: #afafaf;
  color: #333;
  opacity: 1;
}

@media (max-width: 590px) {
  .e-control.e-pager .e-pager-default:hover {
    background: #fff;
    color: #333;
    opacity: 1;
  }
}

.e-control.e-pager.e-rtl .e-numericitem {
  border-left-color: #eaeaea;
}

.e-control.e-pager.e-rtl .e-firstpage,
.e-control.e-pager.e-rtl .e-prevpage,
.e-control.e-pager.e-rtl .e-firstpagedisabled,
.e-control.e-pager.e-rtl .e-prevpagedisabled,
.e-control.e-pager.e-rtl .e-nextpage,
.e-control.e-pager.e-rtl .e-lastpage,
.e-control.e-pager.e-rtl .e-nextpagedisabled,
.e-control.e-pager.e-rtl .e-lastpagedisabled {
  border-left-color: #eaeaea;
}

.e-control.e-pager.e-rtl .e-nextpage,
.e-control.e-pager.e-rtl .e-nextpagedisabled {
  border-left-color: #eaeaea;
}

/*! popup layout */
.e-control.e-popup {
  height: auto;
  position: absolute;
  width: auto;
  z-index: 1000;
}

.e-control.e-popup.e-popup-open {
  display: block;
}

.e-control.e-popup.e-popup-close {
  display: none;
}

/*! component's default definitions and variables */
@keyframes material-spinner-rotate {
  0% {
    -webkit-transform: rotate(0);
    transform: rotate(0);
  }
  100% {
    -webkit-transform: rotate(360deg);
    transform: rotate(360deg);
  }
}

@keyframes fabric-spinner-rotate {
  0% {
    -webkit-transform: rotate(0);
    transform: rotate(0);
  }
  100% {
    -webkit-transform: rotate(360deg);
    transform: rotate(360deg);
  }
}

.e-spinner-pane {
  align-items: center;
  display: inline-flex;
  height: 100%;
  justify-content: center;
  left: 0;
  position: absolute;
  text-align: center;
  top: 0;
  user-select: none;
  vertical-align: middle;
  width: 100%;
  z-index: 1000;
}

.e-spinner-pane::after {
  content: "Fabric";
  display: none;
}

.e-spinner-pane.e-spin-left .e-spinner-inner {
  -webkit-transform: translateX(0%) translateY(-50%);
  left: 0;
  padding-left: 10px;
  transform: translateX(0%) translateY(-50%);
}

.e-spinner-pane.e-spin-right .e-spinner-inner {
  -webkit-transform: translateX(-100%) translateY(-50%);
  left: 100%;
  padding-right: 10px;
  transform: translateX(-100%) translateY(-50%);
}

.e-spinner-pane.e-spin-center .e-spinner-inner {
  -webkit-transform: translateX(-50%) translateY(-50%);
  left: 50%;
  transform: translateX(-50%) translateY(-50%);
}

.e-spinner-pane.e-spin-hide {
  display: none;
}

.e-spinner-pane.e-spin-show {
  display: inline-flex;
}

.e-spinner-pane .e-spinner-inner {
  -webkit-transform: translateX(-50%) translateY(-50%);
  left: 50%;
  margin: 0;
  position: absolute;
  text-align: center;
  top: 50%;
  transform: translateX(-50%) translateY(-50%);
  z-index: 1000;
}

.e-spinner-pane .e-spinner-inner .e-spin-label {
  font-family: "Segoe UI";
  font-size: 14px;
  margin-top: 10px;
  text-align: center;
}

.e-spinner-pane .e-spinner-inner .e-spin-material {
  animation: material-spinner-rotate 1568.63ms linear infinite;
  display: block;
  margin: 0 auto;
}

.e-spinner-pane .e-spinner-inner .e-spin-material .e-path-circle {
  fill: none;
  stroke-linecap: square;
}

.e-spinner-pane .e-spinner-inner .e-spin-fabric {
  animation: fabric-spinner-rotate 1.3s infinite cubic-bezier(0.53, 0.21, 0.29, 0.67);
  display: block;
  margin: 0 auto;
  overflow: visible;
}

.e-spinner-pane .e-spinner-inner .e-spin-fabric .e-path-arc,
.e-spinner-pane .e-spinner-inner .e-spin-fabric .e-path-circle {
  fill: none;
  stroke-width: 1.5;
}

.e-spinner-pane .e-spinner-inner .e-spin-bootstrap {
  display: block;
  margin: 0 auto;
}

.e-spinner-pane .e-spinner-inner .e-spin-high-contrast {
  animation: fabric-spinner-rotate 1.3s infinite cubic-bezier(0.53, 0.21, 0.29, 0.67);
  display: block;
  margin: 0 auto;
  overflow: visible;
}

.e-spinner-pane .e-spinner-inner .e-spin-high-contrast .e-path-arc,
.e-spinner-pane .e-spinner-inner .e-spin-high-contrast .e-path-circle {
  fill: none;
  stroke-width: 1.5;
}

.e-spinner-pane {
  background-color: transparent;
}

.e-spinner-pane.e-spin-overlay {
  background-color: rgba(0, 0, 0, 0.4);
}

.e-spinner-pane.e-spin-overlay .e-spinner-inner .e-spin-label {
  color: #fff;
}

.e-spinner-pane.e-spin-overlay .e-spinner-inner .e-spin-bootstrap {
  fill: #3f3f3f;
  stroke: #3f3f3f;
}

.e-spinner-pane .e-spinner-inner .e-spin-label {
  color: #3f3f3f;
}

.e-spinner-pane .e-spinner-inner .e-spin-fabric .e-path-circle {
  stroke: #afafaf;
}

.e-spinner-pane .e-spinner-inner .e-spin-fabric .e-path-arc {
  stroke: #3f3f3f;
}

.e-spinner-pane .e-spinner-inner .e-spin-high-contrast .e-path-circle {
  stroke: #afafaf;
}

.e-spinner-pane .e-spinner-inner .e-spin-high-contrast .e-path-arc {
  stroke: #3f3f3f;
}

.e-spinner-pane .e-spinner-inner .e-spin-material {
  stroke: #3f3f3f;
}

.e-spinner-pane .e-spinner-inner .e-spin-bootstrap {
  fill: #3f3f3f;
  stroke: #3f3f3f;
}

.e-dropdownbase .e-list-item .e-list-icon {
  padding: 0 10px 0 0;
}

.e-bigger .e-dropdownbase .e-list-item .e-list-icon {
  padding: 0 12px 0 0;
}

.e-bigger .e-dropdownbase,
.e-dropdownbase.e-bigger {
  min-height: 45px;
}

.e-bigger .e-dropdownbase .e-list-item,
.e-bigger .e-dropdownbase .e-list-group-item,
.e-bigger .e-dropdownbase .e-fixed-head,
.e-dropdownbase.e-bigger .e-list-item,
.e-dropdownbase.e-bigger .e-list-group-item,
.e-dropdownbase.e-bigger .e-fixed-head {
  line-height: 48px;
}

.e-bigger .e-dropdownbase .e-list-item .e-list-icon,
.e-dropdownbase.e-bigger .e-list-item .e-list-icon {
  font-size: 20px;
}

.e-dropdownbase {
  display: block;
  height: 100%;
  min-height: 36px;
  position: relative;
  width: 100%;
}

.e-dropdownbase .e-list-parent {
  margin: 0;
  padding: 0;
}

.e-dropdownbase .e-list-group-item,
.e-dropdownbase .e-fixed-head {
  cursor: default;
}

.e-dropdownbase .e-list-item {
  cursor: pointer;
  overflow: hidden;
  position: relative;
  text-overflow: ellipsis;
  vertical-align: middle;
  white-space: nowrap;
  width: 100%;
}

.e-dropdownbase .e-list-item .e-list-icon {
  font-size: 16px;
  vertical-align: middle;
}

.e-dropdownbase .e-fixed-head {
  position: absolute;
  top: 0;
}

.e-rtl .e-dropdownbase .e-fixed-head {
  left: 33px;
}

.e-dropdownbase.e-content {
  overflow: auto;
  position: relative;
}

.e-control.e-popup.e-ddl .e-dropdownbase.e-nodata {
  color: #333;
  cursor: default;
  font-family: "Segoe UI", "GeezaPro", "DejaVu Serif", sans-serif, "-apple-system", "BlinkMacSystemFont";
  font-size: 14px;
  padding: 14px 16px;
  text-align: center;
}

.e-rtl .e-dropdownbase.e-dd-group .e-list-item {
  padding-right: 20px;
}

.e-dropdownbase.e-dd-group .e-list-item {
  padding-left: 20px;
  text-indent: 0;
}

.e-dropdownbase {
  border-color: rgba(234, 234, 234, 0.25);
}

.e-dropdownbase .e-list-item {
  background-color: #fff;
  border-bottom: 1px;
  border-color: none;
  color: rgba(51, 51, 51, 0.87);
  font-family: "Segoe UI", "GeezaPro", "DejaVu Serif", sans-serif, "-apple-system", "BlinkMacSystemFont";
  font-size: 14px;
  line-height: 36px;
  min-height: 36px;
  padding-right: 16px;
  text-indent: 10px;
}

.e-dropdownbase .e-list-group-item,
.e-fixed-head {
  background-color: #fff;
  border-color: none;
  color: #3f3f3f;
  font-family: "Segoe UI", "GeezaPro", "DejaVu Serif", sans-serif, "-apple-system", "BlinkMacSystemFont";
  font-size: 14px;
  font-weight: 600;
  line-height: 36px;
  min-height: 36px;
  padding-left: 10px;
  padding-right: 16px;
}

.e-dropdownbase .e-list-item.e-active,
.e-dropdownbase .e-list-item.e-active.e-hover {
  background-color: #bcbcbc;
  border-color: #fff;
  color: #333;
}

.e-dropdownbase .e-list-item.e-hover {
  background-color: #f4f4f4;
  border-color: #fff;
  color: #333;
}

.e-dropdownbase .e-list-item:last-child {
  border-bottom: 0;
}

.e-dropdownbase .e-list-item.e-item-focus {
  background-color: #f4f4f4;
}

.e-bigger .e-dropdownbase .e-list-group-item,
.e-bigger .e-dropdownbase .e-fixed-head {
  font-size: 14px;
}

/*! component icons */
.e-control.e-listview .e-icon-back::before {
  content: '\e85b';
  font-size: 18px;
}

.e-control.e-listview .e-icon-collapsible::before {
  content: '\e85c';
}

.e-control.e-listview.e-rtl .e-icon-back::before {
  content: '\e830';
  font-size: 18px;
}

.e-control.e-listview.e-rtl .e-icon-collapsible::before {
  content: '\e98f';
}

.e-bigger .e-control.e-listview .e-list-item,
.e-control.e-listview.e-bigger .e-list-item {
  border-bottom: 0 solid transparent;
  border-left: 0 solid transparent;
  border-right: 0 solid transparent;
  border-top: 0 solid transparent;
}

.e-bigger .e-control.e-listview:not(.e-list-template) .e-list-item,
.e-control.e-listview.e-bigger:not(.e-list-template) .e-list-item {
  height: 45px;
  line-height: 45px;
}

.e-bigger .e-control.e-listview .e-text-content,
.e-control.e-listview.e-bigger .e-text-content {
  font-size: 15px;
}

.e-bigger .e-control.e-listview .e-list-group-item,
.e-control.e-listview.e-bigger .e-list-group-item {
  height: 45px;
  line-height: 45px;
}

.e-bigger .e-control.e-listview .e-list-header,
.e-control.e-listview.e-bigger .e-list-header {
  display: block;
  font-weight: 600;
  height: 45px;
}

.e-bigger .e-control.e-listview .e-list-header > *,
.e-control.e-listview.e-bigger .e-list-header > * {
  display: table-cell;
}

.e-bigger .e-control.e-listview .e-list-header .e-text.header,
.e-control.e-listview.e-bigger .e-list-header .e-text.header {
  display: none;
}

.e-bigger .e-control.e-listview .e-list-header .e-headertemplate-text.nested-header,
.e-control.e-listview.e-bigger .e-list-header .e-headertemplate-text.nested-header {
  display: none;
}

.e-bigger .e-control.e-listview .e-list-header .e-text,
.e-control.e-listview.e-bigger .e-list-header .e-text {
  font-size: 15px;
  line-height: 11px;
}

.e-bigger .e-control.e-listview .e-icons,
.e-control.e-listview.e-bigger .e-icons {
  margin-top: 0;
}

.e-bigger .e-control.e-listview .e-but-back,
.e-control.e-listview.e-bigger .e-but-back {
  padding-top: 0;
}

.e-bigger .e-control.e-listview .e-icon-collapsible,
.e-control.e-listview.e-bigger .e-icon-collapsible {
  line-height: inherit;
}

.e-control.e-listview {
  border: 0 solid;
  display: block;
  overflow: auto;
  position: relative;
  width: 100%;
}

.e-control.e-listview:not(.e-list-template) .e-list-item {
  height: 36px;
  line-height: 33px;
  padding: 0 12px;
}

.e-control.e-listview .e-list-item {
  border-bottom: 0 solid;
}

.e-control.e-listview .e-list-parent {
  margin: 0;
  padding: 0;
}

.e-control.e-listview .e-list-header .e-text.header {
  display: none;
}

.e-control.e-listview .e-list-header .e-headertemplate-text.nested-header {
  display: none;
}

.e-control.e-listview .e-list-header {
  border-bottom: 1px solid;
  display: block;
  font-weight: 600;
  height: 36px;
  padding: 16px;
}

.e-control.e-listview .e-has-header > .e-view {
  top: 45px;
}

.e-control.e-listview .e-icons {
  margin-top: 2px;
}

.e-control.e-listview .e-but-back {
  cursor: pointer;
  line-height: 0;
  padding-bottom: 0;
  padding-right: 20px;
  vertical-align: middle;
  width: 20px;
}

.e-control.e-listview .e-list-group-item:first-child {
  border: 0;
  border-bottom: 0 solid transparent;
}

.e-control.e-listview .e-list-group-item {
  border-bottom: 0 solid transparent;
  border-top: 1px solid;
  font-weight: 600;
  height: 36px;
  line-height: 30px;
  padding: 0 12px;
}

.e-control.e-listview .e-icon-collapsible {
  cursor: pointer;
  float: right;
  font-size: 12px;
  line-height: 34px;
}

.e-control.e-listview .e-text-content {
  height: 100%;
  position: relative;
  vertical-align: middle;
}

.e-control.e-listview .e-text-content * {
  display: inline-block;
  vertical-align: middle;
}

.e-control.e-listview .e-text-content.e-checkbox .e-list-text {
  width: calc(100% - 40px);
}

.e-control.e-listview .e-text-content.e-checkbox.e-checkbox-left .e-list-icon + .e-list-text {
  width: calc(100% - 90px);
}

.e-control.e-listview .e-text-content.e-checkbox.e-checkbox-right .e-list-icon + .e-list-text {
  width: calc(100% - 80px);
}

.e-control.e-listview .e-list-item.e-checklist.e-has-child .e-text-content.e-checkbox.e-checkbox-right .e-list-icon + .e-list-text {
  width: calc(100% - 92px);
}

.e-control.e-listview .e-checkbox .e-checkbox-left {
  margin: -2px 10px 0 0;
}

.e-control.e-listview .e-checkbox .e-checkbox-right {
  margin: -2px 0 0 10px;
}

.e-control.e-listview .e-list-text {
  cursor: pointer;
  display: inline-block;
  overflow: hidden;
  text-overflow: ellipsis;
  vertical-align: top;
  white-space: nowrap;
  width: 100%;
}

.e-control.e-listview .e-list-icon + .e-list-text {
  width: calc(100% - 60px);
}

.e-control.e-listview .e-icon-wrapper .e-list-text {
  width: calc(100% - 60px);
}

.e-control.e-listview .e-icon-wrapper.e-text-content.e-checkbox .e-list-text {
  width: calc(100% - 60px);
}

.e-control.e-listview .e-list-icon {
  height: 30px;
  margin-right: 16px;
  width: 30px;
}

.e-control.e-listview .e-content {
  overflow: hidden;
  position: relative;
}

.e-control.e-listview .e-list-header .e-text {
  cursor: pointer;
  line-height: 0;
  text-indent: 0;
}

.e-control.e-listview .e-text .e-headertext {
  display: inline-block;
}

.e-control.e-listview.e-rtl .e-list-icon {
  margin-left: 16px;
  margin-right: 0;
}

.e-control.e-listview.e-rtl .e-icon-collapsible {
  float: left;
  margin-left: auto;
  margin-right: auto;
}

.e-control.e-listview.e-rtl .e-but-back {
  padding-left: 20px;
  padding-right: 0;
}

.e-control.e-listview.e-rtl .e-checkbox .e-checkbox-left {
  margin: -2px 0 0 10px;
}

.e-control.e-listview.e-rtl .e-checkbox .e-checkbox-right {
  margin: -2px 10px 0 0;
}

.e-control.e-listview {
  border-color: #eaeaea;
  font-family: "Segoe UI", "GeezaPro", "DejaVu Serif", sans-serif, "-apple-system", "BlinkMacSystemFont";
  font-size: 13px;
}

.e-control.e-listview .e-list-header {
  background-color: #fff;
  border-color: #eaeaea;
  color: #333;
  display: block;
  font-size: 14px;
}

.e-control.e-listview .e-list-header > * {
  display: table-cell;
}

.e-control.e-listview .e-icons {
  color: #333;
}

.e-control.e-listview .e-list-item {
  background-color: inherit;
  border-bottom: 0 solid transparent;
  border-left: 0 solid transparent;
  border-right: 0 solid transparent;
  border-top: 0 solid transparent;
  color: #333;
}

.e-control.e-listview .e-list-item.e-hover,
.e-control.e-listview .e-list-item.e-hover.e-active.e-checklist {
  background-color: #eaeaea;
  border-color: transparent;
  color: #333;
}

.e-control.e-listview .e-list-item.e-active {
  background-color: #bcbcbc;
  color: #333;
}

.e-control.e-listview .e-list-item.e-active.e-checklist {
  background-color: inherit;
  color: #333;
}

.e-control.e-listview .e-list-item.e-focused,
.e-control.e-listview .e-list-item.e-focused.e-active.e-checklist {
  background-color: #bcbcbc;
  color: #333;
}

.e-control.e-listview .e-list-item.e-focused .e-checkbox-wrapper .e-frame.e-check,
.e-control.e-listview .e-list-item.e-focused .e-css.e-checkbox-wrapper .e-frame.e-check {
  background-color: #3f3f3f;
  border-color: #3f3f3f;
  color: #fff;
}

.e-control.e-listview .e-list-group-item {
  background-color: #fff;
  border-color: #eaeaea;
  color: #3f3f3f;
  font-size: 14px;
}

.e-control.e-listview.e-list-template .e-list-wrapper {
  position: relative;
}

.e-control.e-listview.e-list-template .e-list-wrapper:not(.e-list-multi-line) {
  padding: 0.6153em 0.923em;
}

.e-control.e-listview.e-list-template .e-list-wrapper.e-list-multi-line {
  padding: 0.6153em 0.923em;
}

.e-control.e-listview.e-list-template .e-list-wrapper.e-list-multi-line .e-list-item-header {
  color: #333;
  display: block;
  font-size: 13px;
  font-weight: 500;
  margin: 0;
  overflow: hidden;
  padding: 0.093em 0;
  text-overflow: ellipsis;
  white-space: nowrap;
}

.e-control.e-listview.e-list-template .e-list-wrapper.e-list-multi-line .e-list-content {
  color: #666;
  display: block;
  font-size: 13px;
  margin: 0;
  padding: 0.093em 0;
  word-wrap: break-word;
}

.e-control.e-listview.e-list-template .e-list-wrapper.e-list-multi-line .e-list-content:not(.e-text-overflow) {
  overflow: hidden;
  text-overflow: ellipsis;
  white-space: nowrap;
}

.e-control.e-listview.e-list-template .e-list-wrapper.e-list-avatar .e-avatar {
  height: 3.0769em;
  left: 0.923em;
  position: absolute;
  top: 0.6153em;
  width: 3.0769em;
}

.e-control.e-listview.e-list-template .e-list-wrapper.e-list-avatar:not(.e-list-badge) {
  padding-left: 4.923em;
  padding-right: 0.923em;
}

.e-control.e-listview.e-list-template .e-list-wrapper.e-list-avatar-right:not(.e-list-badge) {
  padding-left: 0.923em;
  padding-right: 4.923em;
}

.e-control.e-listview.e-list-template .e-list-wrapper.e-list-avatar-right:not(.e-list-badge) .e-avatar {
  height: 3.0769em;
  position: absolute;
  right: 0.923em;
  top: 0.6153em;
  width: 3.0769em;
}

.e-control.e-listview.e-list-template .e-list-wrapper.e-list-multi-line.e-list-avatar .e-avatar {
  top: 0.6153em;
}

.e-control.e-listview.e-list-template .e-list-wrapper.e-list-multi-line.e-list-avatar-right:not(.e-list-badge) .e-avatar {
  top: 0.6153em;
}

.e-control.e-listview.e-list-template .e-list-wrapper.e-list-badge .e-badge {
  font-size: 13px;
  height: 1.5384em;
  line-height: 1.3384em;
  padding: 0;
  position: absolute;
  right: 0.923em;
  top: 50%;
  transform: translateY(-50%);
  width: 1.5384em;
}

.e-control.e-listview.e-list-template .e-list-wrapper.e-list-badge.e-list-avatar {
  padding-left: 4.923em;
  padding-right: 3.3846em;
}

.e-control.e-listview.e-list-template .e-list-wrapper.e-list-badge:not(.e-list-avatar) {
  padding-left: 0.923em;
  padding-right: 3.3846em;
}

.e-control.e-listview.e-list-template .e-list-wrapper:not(.e-list-multi-line) .e-list-content {
  display: block;
  margin: 0;
  overflow: hidden;
  padding: 0.867em 0;
  text-overflow: ellipsis;
  white-space: nowrap;
}

.e-control.e-listview.e-list-template .e-list-item.e-hover .e-list-item-header {
  color: #333;
}

.e-control.e-listview.e-list-template .e-list-item.e-hover .e-list-content {
  color: #333;
}

.e-control.e-listview.e-list-template .e-list-item.e-active .e-list-item-header {
  color: #333;
}

.e-control.e-listview.e-list-template .e-list-item.e-active .e-list-content {
  color: #333;
}

.e-control.e-listview.e-rtl.e-list-template .e-list-wrapper.e-list-avatar .e-avatar {
  left: inherit;
  right: 0.923em;
}

.e-control.e-listview.e-rtl.e-list-template .e-list-wrapper.e-list-avatar:not(.e-list-badge) {
  padding-left: 0.923em;
  padding-right: 4.923em;
}

.e-control.e-listview.e-rtl.e-list-template .e-list-wrapper.e-list-avatar-right:not(.e-list-badge) {
  padding-left: 4.923em;
  padding-right: 0.923em;
}

.e-control.e-listview.e-rtl.e-list-template .e-list-wrapper.e-list-avatar-right:not(.e-list-badge) .e-avatar {
  left: 0.923em;
  right: inherit;
}

.e-control.e-listview.e-rtl.e-list-template .e-list-wrapper.e-list-badge .e-badge {
  left: 0.923em;
  right: inherit;
}

.e-control.e-listview.e-rtl.e-list-template .e-list-wrapper.e-list-badge.e-list-avatar {
  padding-left: 3.3846em;
  padding-right: 4.923em;
}

.e-control.e-listview.e-rtl.e-list-template .e-list-wrapper.e-list-badge:not(.e-list-avatar) {
  padding-left: 3.3846em;
  padding-right: 0.923em;
}

/*! component's default definitions and variables */
/*! hscroll icons */
.e-control.e-hscroll.e-rtl.e-scroll-device .e-nav-right-arrow::before {
  content: "";
}

.e-control.e-hscroll.e-rtl.e-scroll-device .e-nav-left-arrow::before {
  content: "";
}

.e-control.e-hscroll.e-rtl .e-nav-left-arrow::before {
  content: "";
}

.e-control.e-hscroll.e-rtl .e-nav-right-arrow::before {
  content: "";
}

.e-control.e-hscroll.e-scroll-device .e-nav-right-arrow::before {
  content: "";
}

.e-control.e-hscroll.e-scroll-device .e-nav-left-arrow::before {
  content: "";
}

.e-control.e-hscroll .e-nav-left-arrow::before {
  content: "";
  line-height: normal;
}

.e-control.e-hscroll .e-nav-right-arrow::before {
  content: "";
  line-height: normal;
}

/*! h-scroll layout */
.e-bigger .e-control.e-hscroll,
.e-control.e-hscroll.e-bigger {
  min-height: 50px;
}

.e-bigger .e-control.e-hscroll:not(.e-scroll-device),
.e-control.e-hscroll.e-bigger:not(.e-scroll-device) {
  padding: 0 50px;
}

.e-bigger .e-control.e-hscroll.e-scroll-device,
.e-control.e-hscroll.e-bigger.e-scroll-device {
  padding-right: 50px;
}

.e-bigger .e-control.e-hscroll.e-rtl.e-scroll-device,
.e-control.e-hscroll.e-bigger.e-rtl.e-scroll-device {
  padding-left: 50px;
  padding-right: initial;
}

.e-bigger .e-control.e-hscroll .e-icons,
.e-control.e-hscroll.e-bigger .e-icons {
  font-size: 18px;
}

.e-bigger .e-control.e-hscroll.e-rtl .e-scroll-overlay.e-scroll-right-overlay,
.e-control.e-hscroll.e-bigger.e-rtl .e-scroll-overlay.e-scroll-right-overlay {
  left: 50px;
}

.e-bigger .e-control.e-hscroll .e-scroll-overlay.e-scroll-right-overlay,
.e-control.e-hscroll.e-bigger .e-scroll-overlay.e-scroll-right-overlay {
  right: 50px;
}

.e-bigger .e-control.e-hscroll .e-scroll-nav,
.e-control.e-hscroll.e-bigger .e-scroll-nav {
  min-height: 50px;
  width: 50px;
}

.e-control.e-hscroll {
  display: block;
  position: relative;
  width: inherit;
}

.e-control.e-hscroll.e-rtl.e-scroll-device {
  padding-left: 50px;
  padding-right: initial;
}

.e-control.e-hscroll.e-rtl.e-scroll-device .e-scroll-nav {
  transform: skewX(-16deg) translateX(-6px);
}

.e-control.e-hscroll.e-rtl.e-scroll-device .e-scroll-overlay.e-scroll-right-overlay {
  left: 52px;
  right: auto;
  transform: skewX(-16deg) translateX(-6px);
}

.e-control.e-hscroll.e-rtl.e-scroll-device .e-scroll-overlay.e-scroll-left-overlay {
  left: auto;
  right: 0;
}

.e-control.e-hscroll:not(.e-scroll-device) {
  padding: 0 40px;
}

.e-control.e-hscroll.e-scroll-device {
  padding-right: 50px;
}

.e-control.e-hscroll.e-scroll-device .e-scroll-nav {
  transform: skewX(-16deg) translateX(6px);
  width: 52px;
  z-index: 1001;
}

.e-control.e-hscroll.e-scroll-device .e-scroll-nav .e-nav-arrow {
  font-size: 14px;
  transform: skewX(16deg);
}

.e-control.e-hscroll.e-scroll-device .e-scroll-overlay {
  opacity: 0.5;
  pointer-events: none;
  position: absolute;
  top: 0;
  z-index: 100;
}

.e-control.e-hscroll.e-scroll-device .e-scroll-overlay.e-scroll-right-overlay {
  left: auto;
  right: 52px;
  transform: skewX(-16deg) translateX(6px);
}

.e-control.e-hscroll.e-scroll-device .e-scroll-overlay.e-scroll-left-overlay {
  left: 0;
  right: auto;
}

.e-control.e-hscroll.e-overlay .e-hscroll-content > * {
  pointer-events: none;
}

.e-control.e-hscroll > * {
  height: inherit;
}

.e-control.e-hscroll .e-hscroll-content {
  display: inline-block;
  height: inherit;
  position: relative;
  touch-action: none;
}

.e-control.e-hscroll .e-hscroll-content > * {
  pointer-events: auto;
}

.e-control.e-hscroll.e-rtl .e-scroll-nav.e-scroll-right-nav {
  left: 0;
  right: auto;
}

.e-control.e-hscroll.e-rtl .e-scroll-nav.e-scroll-left-nav {
  left: auto;
  right: 0;
}

.e-control.e-hscroll .e-scroll-nav {
  align-items: center;
  bottom: 0;
  cursor: pointer;
  display: flex;
  height: 100%;
  min-height: 40px;
  overflow: hidden;
  position: absolute;
  top: 0;
  width: 40px;
}

.e-control.e-hscroll .e-scroll-nav.e-scroll-left-nav {
  left: 0;
}

.e-control.e-hscroll .e-scroll-nav.e-scroll-right-nav {
  right: 0;
}

.e-control.e-hscroll .e-scroll-nav.e-ie-align {
  display: table;
}

.e-control.e-hscroll .e-nav-arrow {
  position: relative;
}

.e-control.e-hscroll .e-nav-arrow.e-icons {
  display: table-cell;
  text-align: center;
  vertical-align: middle;
  width: 100%;
}

/*! h-scroll theme */
.e-control.e-hscroll .e-icons {
  color: #333;
}

.e-control.e-hscroll.e-rtl.e-scroll-device .e-scroll-nav.e-scroll-right-nav {
  border-color: #dadada;
  box-shadow: 4px 0 8px 0 rgba(0, 0, 0, 0.06);
}

.e-control.e-hscroll.e-scroll-device .e-scroll-nav.e-scroll-right-nav {
  background-color: #fff;
  border-color: #dadada;
  border-width: 1px;
  box-shadow: -4px 0 8px 0 rgba(0, 0, 0, 0.06);
}

.e-control.e-hscroll.e-scroll-device .e-scroll-nav.e-scroll-right-nav .e-nav-arrow {
  color: #3f3f3f;
}

.e-control.e-hscroll .e-scroll-overlay {
  background-color: transparent;
  background-repeat: repeat-x;
}

.e-control.e-hscroll .e-scroll-overlay.e-scroll-left-overlay {
  background-image: linear-gradient(-270deg, white 0%, rgba(255, 255, 255, 0) 100%);
}

.e-control.e-hscroll .e-scroll-overlay.e-scroll-right-overlay {
  background-image: linear-gradient(-270deg, rgba(255, 255, 255, 0) 0%, white 100%);
}

.e-control.e-hscroll.e-rtl .e-scroll-nav {
  background: #fff;
}

.e-control.e-hscroll.e-rtl .e-scroll-nav.e-scroll-left-nav {
  border-left: 1px solid #a6a6a6;
  border-right: 0;
}

.e-control.e-hscroll.e-rtl .e-scroll-nav.e-scroll-right-nav {
  border-left: 0;
  border-right: 1px solid #a6a6a6;
}

.e-control.e-hscroll.e-rtl .e-scroll-nav:hover {
  background: #f4f4f4;
  border: "";
  border-color: "";
  color: #333;
}

.e-control.e-hscroll:not(.e-scroll-device) .e-scroll-nav:hover {
  background: #f4f4f4;
  border: "";
  color: #333;
}

.e-control.e-hscroll:not(.e-scroll-device) .e-scroll-nav:focus {
  background: #f4f4f4;
  border: "";
  border-color: "";
  color: #333;
}

.e-control.e-hscroll:not(.e-scroll-device) .e-scroll-nav:active {
  background: #bcbcbc;
  border: "";
  box-shadow: "";
  color: #333;
}

.e-control.e-hscroll .e-scroll-nav {
  background: #fff;
}

.e-control.e-hscroll .e-scroll-nav.e-scroll-left-nav {
  border-right: 1px solid #a6a6a6;
}

.e-control.e-hscroll .e-scroll-nav.e-scroll-right-nav {
  border-left: 1px solid #a6a6a6;
}

.e-control.e-hscroll .e-scroll-nav::after {
  content: '';
}

.e-control.e-hscroll .e-scroll-nav:active::after {
  content: '';
}

/*! component's default definitions and variables */
.e-controlejs-sidebar {
  display: block;
}

.e-sidebar {
  -webkit-tap-highlight-color: transparent;
  background: #fff;
  height: 100%;
  overflow: auto;
  position: fixed;
  top: 0;
  transition: none;
  vertical-align: middle;
  visibility: hidden;
  will-change: transform;
}

.e-sidebar.e-right.e-open {
  transform: translateX(0%);
  transition: transform .5s ease;
  visibility: visible;
}

.e-sidebar.e-right.e-close {
  box-shadow: none;
  transform: translateX(100%);
  transition: transform .5s ease, visibility 500ms;
  visibility: hidden;
}

.e-sidebar.e-left.e-open {
  transform: translateX(0%);
  transition: transform .5s ease;
  visibility: visible;
}

.e-sidebar.e-left.e-transition.e-close, .e-sidebar.e-right.e-transition.e-close {
  transition: transform .5s ease, visibility 500ms;
}

.e-sidebar.e-left.e-close {
  box-shadow: none;
  transform: translateX(-100%);
  visibility: hidden;
}

.e-sidebar.e-right.e-close {
  box-shadow: none;
  transform: translateX(100%);
  transition: transform .5s ease, visibility 500ms;
  visibility: hidden;
}

.e-sidebar.e-right {
  border-left: 1px solid #eaeaea;
  left: auto;
  right: 0;
  top: 0;
}

.e-sidebar.e-left {
  border-right: 1px solid #eaeaea;
  left: 0;
  right: auto;
  top: 0;
}

.e-sidebar.e-left.e-close.e-dock {
  transform: translateX(0%);
  transition: transform ease;
  visibility: visible;
}

.e-sidebar.e-right.e-close.e-dock {
  transform: translateX(0%);
  transition: transform ease;
  visibility: visible;
}

.e-sidebar.e-left.e-open.e-disable-animation, .e-sidebar.e-right.e-open.e-disable-animation, .e-sidebar.e-right.e-close.e-disable-animation, .e-sidebar.e-left.e-close.e-disable-animation {
  transition: none;
}

.e-sidebar.e-visibility {
  visibility: hidden;
}

.e-sidebar.e-over {
  box-shadow: 0 0 30px rgba(0, 0, 0, 0.3);
}

.e-sidebar-absolute {
  position: absolute;
}

.e-sidebar-context {
  overflow-x: hidden;
  position: relative;
}

.e-backdrop {
  background-color: rgba(0, 0, 0, 0.6);
  height: 100%;
  left: 0;
  opacity: .5;
  pointer-events: auto;
  top: 0;
  width: auto;
  z-index: 999;
}

.e-content-animation {
  transition: margin .5s ease, -webkit-transform .5s ease, transform .5s ease;
}

.e-content-animation.e-overlay {
  box-sizing: border-box;
  overflow: auto;
  user-select: none;
}

.e-disable-interaction {
  pointer-events: none;
  touch-action: none;
}

.e-sidebar-overflow {
  overflow-x: hidden !important;
}

.e-sidebar-overlay {
  background-color: rgba(0, 0, 0, 0.6);
  height: 100%;
  left: 0;
  opacity: .5;
  pointer-events: auto;
  position: fixed;
  top: 0;
  width: 100%;
  z-index: 999;
}

/*! component icons */
.e-icon-check::before {
  content: '\e7ff';
}

.e-control.e-grid .e-icon-ascending::before,
.e-grid-menu .e-icon-ascending::before {
  content: "";
}

.e-control.e-grid .e-icon-descending::before,
.e-grid-menu .e-icon-descending::before {
  content: "";
}

.e-control.e-grid .e-icon-hide::before,
.e-grid-menu .e-icon-hide::before {
  content: "";
}

.e-control.e-grid .e-ungroupbutton.e-icon-hide::before,
.e-grid-menu .e-ungroupbutton.e-icon-hide::before {
  content: "";
}

.e-control.e-grid .e-icon-rowselect::before,
.e-grid-menu .e-icon-rowselect::before {
  content: '\e930';
}

.e-control.e-grid .e-icon-sortdirect::before,
.e-grid-menu .e-icon-sortdirect::before {
  content: '\e890';
}

.e-control.e-grid .e-icon-gdownarrow::before,
.e-grid-menu .e-icon-gdownarrow::before {
  content: "";
}

.e-control.e-grid .e-icon-grightarrow::before,
.e-grid-menu .e-icon-grightarrow::before {
  content: "";
}

.e-control.e-grid .e-icon-filter::before,
.e-grid-menu .e-icon-filter::before {
  content: "";
}

.e-control.e-grid .e-excl-filter-icon::before,
.e-grid-menu .e-excl-filter-icon::before {
  content: "";
}

.e-control.e-grid .e-excl-filter-icon.e-filtered::before,
.e-grid-menu .e-excl-filter-icon.e-filtered::before {
  content: "";
}

.e-control.e-grid.e-rtl .e-icon-grightarrow::before,
.e-grid-menu.e-rtl .e-icon-grightarrow::before {
  content: "";
}

.e-control.e-grid .e-icon-group::before,
.e-grid-menu .e-icon-group::before {
  content: '\e926';
}

.e-control.e-grid .e-icon-ungroup::before,
.e-grid-menu .e-icon-ungroup::before {
  content: '\e926';
}

.e-control.e-grid .e-icon-reorderuparrow::before,
.e-grid-menu .e-icon-reorderuparrow::before {
  content: '\e918';
}

.e-control.e-grid .e-icon-reorderdownarrow::before,
.e-grid-menu .e-icon-reorderdownarrow::before {
  content: '\e919';
}

.e-control.e-grid .e-print::before,
.e-grid-menu .e-print::before {
  content: "";
}

.e-control.e-grid .e-add::before,
.e-grid-menu .e-add::before {
  content: "";
}

.e-control.e-grid .e-wordexport::before,
.e-grid-menu .e-wordexport::before {
  content: '\e7b0';
}

.e-control.e-grid .e-pdfexport::before,
.e-grid-menu .e-pdfexport::before {
  content: '\e240';
}

.e-control.e-grid .e-csvexport::before,
.e-grid-menu .e-csvexport::before {
  content: '\e241';
}

.e-control.e-grid .e-excelexport::before,
.e-grid-menu .e-excelexport::before {
  content: '\e242';
}

.e-control.e-grid .e-edit::before,
.e-grid-menu .e-edit::before {
  content: "";
}

.e-control.e-grid .e-columnmenu::before,
.e-grid-menu .e-columnmenu::before {
  content: '\e984';
}

.e-control.e-grid .e-delete::before,
.e-grid-menu .e-delete::before {
  content: "";
}

.e-control.e-grid .e-cancel::before,
.e-grid-menu .e-cancel::before {
  content: "";
}

.e-control.e-grid .e-copy::before,
.e-grid-menu .e-copy::before {
  content: '\e70a';
}

.e-control.e-grid .e-save::before,
.e-grid-menu .e-save::before {
  content: "";
}

.e-control.e-grid .e-update::before,
.e-grid-menu .e-update::before {
  content: '\e735';
}

.e-control.e-grid .e-search-icon::before,
.e-grid-menu .e-search-icon::before {
  content: "";
}

.e-control.e-grid .e-cancel-icon::before,
.e-grid-menu .e-cancel-icon::before {
  content: "";
}

.e-control.e-grid .e-columnchooserdiv::before,
.e-grid-menu .e-columnchooserdiv::before {
  content: '\e714';
}

.e-control.e-grid .e-ccsearch-icon::before,
.e-grid-menu .e-ccsearch-icon::before {
  content: "";
}

.e-control.e-grid .e-columnchooser::before,
.e-grid-menu .e-columnchooser::before {
  content: '\e21e';
}

.e-control.e-grid .e-columnchooser-btn::before,
.e-grid-menu .e-columnchooser-btn::before {
  content: '\e969';
}

.e-control.e-grid .e-cc-icon::before,
.e-grid-menu .e-cc-icon::before {
  content: '\e82e';
}

.e-control.e-grid .e-ccsearch-icon.e-cc-cancel::before,
.e-control.e-grid .e-chkcancel-icon::before,
.e-grid-menu .e-ccsearch-icon.e-cc-cancel::before,
.e-grid-menu .e-chkcancel-icon::before {
  content: "";
}

/*! Grid layout */
.e-disableuserselect {
  user-select: none;
}

.e-emptyicon {
  opacity: 0;
}

.e-device .e-flmenu-valuediv {
  padding: 24px 0 0;
}

.e-xlfl-dlgfields {
  font-size: 15px;
}

.e-xlfl-fieldset {
  font-size: 13px;
  padding-top: 9px;
}

.e-xlfl-optr,
.e-xlfl-value {
  padding-top: 12px;
}

.e-xlfl-radio,
.e-xlfl-mtcase {
  padding-top: 12px;
}

.e-xlfl-optr:first-child {
  padding-right: 12px;
}

.e-xlflmenu.e-rtl .e-xlfl-optr:first-child {
  padding-left: 12px;
}

.e-xlflmenu {
  min-height: 314px;
}

.e-xlflmenu .e-xlfl-table {
  border-spacing: 0;
  table-layout: fixed;
  width: 100%;
}

.e-xlflmenu .e-radio + label .e-label {
  padding-left: 25px;
  padding-right: 8px;
}

.e-xlflmenu.e-rtl .e-radio + label .e-label {
  padding-left: 0;
  padding-right: 25px;
}

.e-xlflmenu .e-checkbox-wrapper .e-frame + .e-label {
  margin-left: 6px;
}

.e-xlflmenu .e-dlg-content {
  padding-bottom: 5px;
}

.e-xlfl-radiodiv {
  width: 118px;
}

.e-xlfl-radio-or,
.e-xlfl-matchcasediv {
  margin-left: 2px;
}

.e-xlflmenu.e-rtl .e-xlfl-radio-or,
.e-xlfl-matchcasediv {
  margin-left: 0;
  margin-right: 13px;
}

.e-bigger .e-xlflmenu .e-xlfl-table {
  border-spacing: 0;
  width: 100%;
}

.e-bigger .e-xlflmenu .e-dlg-content {
  padding-bottom: 10px;
}

.e-bigger .e-xlflmenu .e-radio + label .e-label {
  padding-left: 28px;
  padding-right: 5px;
}

.e-bigger .e-xlflmenu .e-checkbox-wrapper .e-frame + .e-label {
  margin-left: 8px;
}

.e-bigger .e-xlfl-radiodiv {
  width: 138px;
}

.e-bigger .e-xlfl-radio-or,
.e-bigger .e-xlfl-matchcasediv {
  margin-left: 18px;
}

.e-bigger .e-xlflmenu {
  min-height: 372px;
}

.e-bigger .e-xlfl-optr:first-child {
  padding-right: 16px;
}

.e-bigger .e-xlfl-dlgfields {
  font-size: 16px;
}

.e-bigger .e-xlfl-fieldset {
  font-size: 14px;
  padding-top: 12px;
}

.e-bigger .e-xlfl-optr,
.e-bigger .e-xlfl-value {
  padding-top: 16px;
}

.e-bigger .e-xlfl-radio,
.e-bigger .e-xlfl-mtcase {
  padding-top: 6px;
}

.e-bigger .e-control.e-grid,
.e-control.e-grid.e-bigger {
  font-size: 14px;
}

.e-bigger .e-control.e-grid .e-toolbar-items .e-toolbar-item.e-search-wrapper,
.e-control.e-grid.e-bigger .e-toolbar-items .e-toolbar-item.e-search-wrapper {
  padding-bottom: 5px;
  padding-top: 5px;
}

.e-bigger .e-control.e-grid .e-toolbar-items .e-toolbar-item.e-search-wrapper .e-search .e-search-icon,
.e-control.e-grid.e-bigger .e-toolbar-items .e-toolbar-item.e-search-wrapper .e-search .e-search-icon {
  min-width: 38px;
}

.e-bigger .e-control.e-grid .e-toolbar .e-toolbar-items .e-tbar-btn .e-icons,
.e-control.e-grid.e-bigger .e-toolbar .e-toolbar-items .e-tbar-btn .e-icons {
  font-size: 18px;
}

.e-bigger .e-control.e-grid .e-xlflmenu,
.e-control.e-grid.e-bigger .e-xlflmenu {
  min-height: 372px;
}

.e-bigger .e-control.e-grid .e-excelfilter .e-contextmenu-wrapper ul li,
.e-control.e-grid.e-bigger .e-excelfilter .e-contextmenu-wrapper ul li {
  height: 48px;
  line-height: 48px;
}

.e-bigger .e-control.e-grid .e-excelfilter .e-contextmenu-wrapper ul li .e-menu-icon,
.e-control.e-grid.e-bigger .e-excelfilter .e-contextmenu-wrapper ul li .e-menu-icon {
  height: 48px;
  line-height: 48px;
  margin-right: 10px;
}

.e-bigger .e-control.e-grid .e-excelfilter .e-contextmenu-wrapper ul .e-menu-item .e-caret,
.e-control.e-grid.e-bigger .e-excelfilter .e-contextmenu-wrapper ul .e-menu-item .e-caret {
  height: 48px;
  line-height: 48px;
}

.e-bigger .e-control.e-grid .e-headercell,
.e-control.e-grid.e-bigger .e-headercell {
  height: 45px;
  padding: 0 10px 0;
}

.e-bigger .e-control.e-grid .e-icons,
.e-control.e-grid.e-bigger .e-icons {
  font-size: 14px;
}

.e-bigger .e-control.e-grid .e-gridheader .e-icons,
.e-control.e-grid.e-bigger .e-gridheader .e-icons {
  font-size: 14px;
}

.e-bigger .e-control.e-grid .e-icon-gdownarrow,
.e-control.e-grid.e-bigger .e-icon-gdownarrow {
  font-size: 14px;
}

.e-bigger .e-control.e-grid .e-icon-grightarrow,
.e-control.e-grid.e-bigger .e-icon-grightarrow {
  font-size: 14px;
}

.e-bigger .e-control.e-grid .e-toolbar .e-btn-icon.e-icons.e-columnchooser-btn,
.e-control.e-grid.e-bigger .e-toolbar .e-btn-icon.e-icons.e-columnchooser-btn {
  font-size: 12px;
}

.e-bigger .e-control.e-grid .e-gridheader tr th:last-child,
.e-control.e-grid.e-bigger .e-gridheader tr th:last-child {
  padding-right: 13px;
}

.e-bigger .e-control.e-grid .e-gridheader tr th:last-child.e-filterbarcell,
.e-control.e-grid.e-bigger .e-gridheader tr th:last-child.e-filterbarcell {
  padding-left: 10px;
}

.e-bigger .e-control.e-grid .e-gridheader tr th:first-child,
.e-control.e-grid.e-bigger .e-gridheader tr th:first-child {
  padding-left: 13px;
}

.e-bigger .e-control.e-grid .e-gridheader tr th:first-child.e-filterbarcell,
.e-control.e-grid.e-bigger .e-gridheader tr th:first-child.e-filterbarcell {
  padding-left: 10px;
}

.e-bigger .e-control.e-grid .e-headercelldiv,
.e-control.e-grid.e-bigger .e-headercelldiv {
  font-size: 15px;
}

.e-bigger .e-control.e-grid .e-rowcell,
.e-bigger .e-control.e-grid .e-summarycell,
.e-control.e-grid.e-bigger .e-rowcell,
.e-control.e-grid.e-bigger .e-summarycell {
  font-size: 14px;
  padding: 9px 10px;
}

.e-bigger .e-control.e-grid .e-rowcell:first-child,
.e-bigger .e-control.e-grid .e-summarycell:first-child,
.e-control.e-grid.e-bigger .e-rowcell:first-child,
.e-control.e-grid.e-bigger .e-summarycell:first-child {
  padding-left: 13px;
}

.e-bigger .e-control.e-grid .e-rowcell:last-child,
.e-bigger .e-control.e-grid .e-summarycell:last-child,
.e-control.e-grid.e-bigger .e-rowcell:last-child,
.e-control.e-grid.e-bigger .e-summarycell:last-child {
  padding-right: 13px;
}

.e-bigger .e-control.e-grid .e-filterbarcell,
.e-bigger .e-control.e-grid .e-filterbarcelldisabled,
.e-control.e-grid.e-bigger .e-filterbarcell,
.e-control.e-grid.e-bigger .e-filterbarcelldisabled {
  height: 45px;
  padding: 0 10px;
}

.e-bigger .e-control.e-grid .e-filterbarcell input,
.e-control.e-grid.e-bigger .e-filterbarcell input {
  height: 40px;
}

.e-bigger .e-control.e-grid .e-ftrchk,
.e-control.e-grid.e-bigger .e-ftrchk {
  padding-bottom: 12px;
  padding-top: 12px;
}

.e-bigger .e-control.e-grid .e-columnmenu,
.e-control.e-grid.e-bigger .e-columnmenu {
  bottom: 10px;
}

.e-bigger .e-control.e-grid.e-device.e-noselect,
.e-control.e-grid.e-bigger.e-device.e-noselect {
  user-select: none;
}

.e-bigger .e-control.e-grid .e-dialog.e-checkboxfilter,
.e-bigger .e-control.e-grid .e-dialog.e-flmenu,
.e-control.e-grid.e-bigger .e-dialog.e-checkboxfilter,
.e-control.e-grid.e-bigger .e-dialog.e-flmenu {
  min-width: 260px;
}

.e-bigger .e-control.e-grid .e-dialog.e-checkboxfilter,
.e-control.e-grid.e-bigger .e-dialog.e-checkboxfilter {
  min-height: 370px;
}

.e-bigger .e-control.e-grid .e-filtermenudiv,
.e-control.e-grid.e-bigger .e-filtermenudiv {
  margin: -26px -7px;
}

.e-bigger .e-control.e-grid .e-sortfilterdiv,
.e-control.e-grid.e-bigger .e-sortfilterdiv {
  margin: -23px 6px;
}

.e-bigger .e-control.e-grid .e-gridheader .e-fltr-icon .e-sortfilterdiv,
.e-control.e-grid.e-bigger .e-gridheader .e-fltr-icon .e-sortfilterdiv {
  margin: -23px 20px 0 0;
}

.e-bigger .e-control.e-grid .e-gridheader .e-columnheader.e-wrap .e-sortfilterdiv,
.e-bigger .e-control.e-grid .e-wrap .e-sortfilterdiv,
.e-control.e-grid.e-bigger .e-gridheader .e-columnheader.e-wrap .e-sortfilterdiv,
.e-control.e-grid.e-bigger .e-wrap .e-sortfilterdiv {
  margin: -19px 6px;
}

.e-bigger .e-control.e-grid .e-gridheader .e-columnheader.e-wrap .e-rightalign .e-sortfilterdiv
.e-wrap .e-rightalign .e-sortfilterdiv,
.e-control.e-grid.e-bigger .e-gridheader .e-columnheader.e-wrap .e-rightalign .e-sortfilterdiv
.e-wrap .e-rightalign .e-sortfilterdiv {
  margin: -19px -4px;
}

.e-bigger .e-control.e-grid .e-gridheader .e-columnheader.e-wrap .e-fltr-icon .e-sortfilterdiv
.e-wrap .e-fltr-icon .e-sortfilterdiv,
.e-control.e-grid.e-bigger .e-gridheader .e-columnheader.e-wrap .e-fltr-icon .e-sortfilterdiv
.e-wrap .e-fltr-icon .e-sortfilterdiv {
  margin: -17px 20px;
}

.e-bigger .e-control.e-grid .e-gridheader .e-columnheader.e-wrap .e-rightalign.e-fltr-icon .e-sortfilterdiv,
.e-bigger .e-control.e-grid .e-wrap .e-rightalign.e-fltr-icon .e-sortfilterdiv,
.e-control.e-grid.e-bigger .e-gridheader .e-columnheader.e-wrap .e-rightalign.e-fltr-icon .e-sortfilterdiv,
.e-control.e-grid.e-bigger .e-wrap .e-rightalign.e-fltr-icon .e-sortfilterdiv {
  margin: -17px 0;
}

.e-bigger .e-control.e-grid .e-gridheader .e-rightalign .e-sortfilterdiv,
.e-control.e-grid.e-bigger .e-gridheader .e-rightalign .e-sortfilterdiv {
  margin: -23px -4px;
}

.e-bigger .e-control.e-grid .e-gridheader .e-rightalign.e-fltr-icon .e-sortfilterdiv,
.e-control.e-grid.e-bigger .e-gridheader .e-rightalign.e-fltr-icon .e-sortfilterdiv {
  margin: -23px 11px 0 0;
}

.e-bigger .e-control.e-grid.e-rtl .e-headercell .e-sortfilterdiv,
.e-bigger .e-control.e-grid.e-rtl .e-detailheadercell .e-sortfilterdiv,
.e-control.e-grid.e-bigger.e-rtl .e-headercell .e-sortfilterdiv,
.e-control.e-grid.e-bigger.e-rtl .e-detailheadercell .e-sortfilterdiv {
  margin: -22px 0 0 13px;
}

.e-bigger .e-control.e-grid.e-rtl .e-gridheader .e-rightalign .e-sortfilterdiv,
.e-control.e-grid.e-bigger.e-rtl .e-gridheader .e-rightalign .e-sortfilterdiv {
  margin: -22px 0 0 22px;
}

.e-bigger .e-control.e-grid.e-rtl .e-gridheader .e-fltr-icon .e-sortfilterdiv,
.e-control.e-grid.e-bigger.e-rtl .e-gridheader .e-fltr-icon .e-sortfilterdiv {
  margin: -23px 0 0 -7px;
}

.e-bigger .e-control.e-grid.e-rtl .e-gridheader .e-rightalign.e-fltr-icon .e-sortfilterdiv,
.e-control.e-grid.e-bigger.e-rtl .e-gridheader .e-rightalign.e-fltr-icon .e-sortfilterdiv {
  margin: -23px 0 0 5px;
}

.e-bigger .e-control.e-grid.e-rtl .e-filtermenudiv,
.e-control.e-grid.e-bigger.e-rtl .e-filtermenudiv {
  margin: -27px 0 -26px -5px;
}

.e-bigger .e-control.e-grid.e-rtl .e-headercell .e-headercelldiv .e-sortnumber,
.e-bigger .e-control.e-grid.e-rtl .e-detailheadercell .e-headercelldiv .e-sortnumber,
.e-control.e-grid.e-bigger.e-rtl .e-headercell .e-headercelldiv .e-sortnumber,
.e-control.e-grid.e-bigger.e-rtl .e-detailheadercell .e-headercelldiv .e-sortnumber {
  margin: 9px 0 0 3px;
}

.e-bigger .e-control.e-grid .e-rowcell,
.e-bigger .e-control.e-grid .e-summarycell,
.e-bigger .e-control.e-grid .e-emptyrow td,
.e-bigger .e-control.e-grid .e-frozencontent table tr td:first-child:empty,
.e-bigger .e-control.e-grid .e-movablecontent table tr td:first-child:empty,
.e-control.e-grid.e-bigger .e-rowcell,
.e-control.e-grid.e-bigger .e-summarycell,
.e-control.e-grid.e-bigger .e-emptyrow td,
.e-control.e-grid.e-bigger .e-frozencontent table tr td:first-child:empty,
.e-control.e-grid.e-bigger .e-movablecontent table tr td:first-child:empty {
  line-height: 26px;
}

.e-bigger .e-control.e-grid .e-filterbarcell input,
.e-control.e-grid.e-bigger .e-filterbarcell input {
  font-size: 14px;
}

.e-bigger .e-control.e-grid .e-groupdroparea,
.e-control.e-grid.e-bigger .e-groupdroparea {
  font-size: 21px;
  min-height: 74px;
  padding: 22px 24px;
}

.e-bigger .e-control.e-grid .e-groupdroparea.e-grouped,
.e-control.e-grid.e-bigger .e-groupdroparea.e-grouped {
  padding: 11px 0 12px;
}

.e-bigger .e-control.e-grid .e-frozenheader table tr td.e-rowcell,
.e-control.e-grid.e-bigger .e-frozenheader table tr td.e-rowcell {
  height: 38px;
}

.e-bigger .e-control.e-grid .e-frozencontent table tr td:first-child:empty,
.e-bigger .e-control.e-grid .e-movablecontent table tr td:first-child:empty,
.e-bigger .e-control.e-grid .e-frozenhdrcont table tr td:first-child:empty,
.e-control.e-grid.e-bigger .e-frozencontent table tr td:first-child:empty,
.e-control.e-grid.e-bigger .e-movablecontent table tr td:first-child:empty,
.e-control.e-grid.e-bigger .e-frozenhdrcont table tr td:first-child:empty {
  height: 44px;
}

.e-bigger .e-control.e-grid.e-bigger .e-columnmenu,
.e-control.e-grid.e-bigger.e-bigger .e-columnmenu {
  bottom: 16px;
}

.e-bigger .e-control.e-grid .e-groupheadercell,
.e-bigger .e-control.e-grid .e-groupheadercell:hover,
.e-control.e-grid.e-bigger .e-groupheadercell,
.e-control.e-grid.e-bigger .e-groupheadercell:hover {
  border-radius: 0;
  height: 33px;
  margin: 10px 0 0 10px;
  padding: 0 10px;
}

.e-bigger .e-control.e-grid .e-groupheadercell:hover,
.e-control.e-grid.e-bigger .e-groupheadercell:hover {
  padding: 0 10px;
}

.e-bigger .e-control.e-grid .e-gdclone,
.e-control.e-grid.e-bigger .e-gdclone {
  border-radius: 0;
  padding: 6px;
}

.e-bigger .e-control.e-grid .e-groupheadercell span,
.e-control.e-grid.e-bigger .e-groupheadercell span {
  height: 32px;
  line-height: 32px;
  padding: 0;
}

.e-bigger .e-control.e-grid .e-groupheadercell .e-ungroupbutton,
.e-control.e-grid.e-bigger .e-groupheadercell .e-ungroupbutton {
  font-size: 13px;
}

.e-bigger .e-control.e-grid .e-groupheadercell .e-grouptext,
.e-control.e-grid.e-bigger .e-groupheadercell .e-grouptext {
  line-height: 32px;
}

.e-bigger .e-control.e-grid .e-row .e-input-group .e-input.e-field,
.e-bigger .e-control.e-grid .e-row .e-input-focus .e-input.e-field,
.e-control.e-grid.e-bigger .e-row .e-input-group .e-input.e-field,
.e-control.e-grid.e-bigger .e-row .e-input-focus .e-input.e-field {
  font-family: "Segoe UI", "GeezaPro", "DejaVu Serif", sans-serif, "-apple-system", "BlinkMacSystemFont";
  font-size: 13px;
  padding-bottom: 0;
  padding-top: 0;
}

.e-bigger .e-control.e-grid.e-device .e-row .e-input-group .e-input.e-field,
.e-bigger .e-control.e-grid.e-device .e-row .e-input-focus .e-input.e-field,
.e-control.e-grid.e-bigger.e-device .e-row .e-input-group .e-input.e-field,
.e-control.e-grid.e-bigger.e-device .e-row .e-input-focus .e-input.e-field {
  padding-bottom: 0;
  padding-top: 0;
}

.e-bigger .e-control.e-grid .e-row .e-input-group,
.e-control.e-grid.e-bigger .e-row .e-input-group {
  margin-bottom: 2px;
  vertical-align: middle;
}

.e-bigger .e-control.e-grid.e-device .e-headercell,
.e-control.e-grid.e-bigger.e-device .e-headercell {
  padding: 0 8px;
}

.e-bigger .e-control.e-grid.e-device .e-headercell:first-child,
.e-control.e-grid.e-bigger.e-device .e-headercell:first-child {
  padding: 0 8px 0 10px;
}

.e-bigger .e-control.e-grid.e-device .e-headercell:last-child,
.e-control.e-grid.e-bigger.e-device .e-headercell:last-child {
  padding: 0 10px 0 8px;
}

.e-bigger .e-control.e-grid.e-device .e-groupheadercell span,
.e-control.e-grid.e-bigger.e-device .e-groupheadercell span {
  line-height: 30px;
}

.e-bigger .e-control.e-grid.e-device .e-rowcell,
.e-bigger .e-control.e-grid.e-device .e-summarycell,
.e-control.e-grid.e-bigger.e-device .e-rowcell,
.e-control.e-grid.e-bigger.e-device .e-summarycell {
  padding: 7px 8px;
}

.e-bigger .e-control.e-grid.e-device .e-rowcell:first-child,
.e-bigger .e-control.e-grid.e-device .e-summarycell:first-child,
.e-control.e-grid.e-bigger.e-device .e-rowcell:first-child,
.e-control.e-grid.e-bigger.e-device .e-summarycell:first-child {
  padding: 7px 8px 7px 10px;
}

.e-bigger .e-control.e-grid.e-device .e-rowcell:last-child,
.e-bigger .e-control.e-grid.e-device .e-summarycell:last-child,
.e-control.e-grid.e-bigger.e-device .e-rowcell:last-child,
.e-control.e-grid.e-bigger.e-device .e-summarycell:last-child {
  padding: 7px 10px 7px 8px;
}

.e-bigger .e-control.e-grid.e-device .e-filterbarcell,
.e-control.e-grid.e-bigger.e-device .e-filterbarcell {
  padding: 3px 8px 2px 8px;
}

.e-bigger .e-control.e-grid.e-device .e-filterbarcell:first-child,
.e-control.e-grid.e-bigger.e-device .e-filterbarcell:first-child {
  padding: 3px 8px 2px 10px;
}

.e-bigger .e-control.e-grid.e-device .e-filterbarcell:last-child,
.e-control.e-grid.e-bigger.e-device .e-filterbarcell:last-child {
  padding: 3px 10px 2px 8px;
}

.e-bigger .e-control.e-grid.e-device .e-groupheadercell .e-ungroupbutton,
.e-control.e-grid.e-bigger.e-device .e-groupheadercell .e-ungroupbutton {
  line-height: 31px;
}

.e-bigger .e-control.e-grid.e-device .e-normaledit .e-rowcell,
.e-control.e-grid.e-bigger.e-device .e-normaledit .e-rowcell {
  padding-bottom: 0;
  padding-top: 0;
}

.e-bigger .e-control.e-grid.e-device .e-editedbatchcell.e-rowcell,
.e-control.e-grid.e-bigger.e-device .e-editedbatchcell.e-rowcell {
  padding-bottom: 0;
  padding-top: 0;
}

.e-bigger .e-control.e-grid .e-unboundcell,
.e-bigger .e-control.e-grid .e-editedrow .e-normaledit .e-unboundcell,
.e-bigger .e-control.e-grid .e-addedrow .e-normaledit .e-unboundcell,
.e-control.e-grid.e-bigger .e-unboundcell,
.e-control.e-grid.e-bigger .e-editedrow .e-normaledit .e-unboundcell,
.e-control.e-grid.e-bigger .e-addedrow .e-normaledit .e-unboundcell {
  padding-bottom: 6px;
  padding-top: 6px;
}

.e-bigger .e-control.e-grid .e-grouptext,
.e-control.e-grid.e-bigger .e-grouptext {
  margin-right: 10px;
  width: 76px;
}

.e-bigger .e-control.e-grid .e-gridheader table th[rowspan],
.e-bigger .e-control.e-grid.e-device .e-gridheader table th[rowspan],
.e-control.e-grid.e-bigger .e-gridheader table th[rowspan],
.e-control.e-grid.e-bigger.e-device .e-gridheader table th[rowspan] {
  padding-bottom: 20px;
}

.e-bigger .e-control.e-grid .e-groupsort,
.e-bigger .e-control.e-grid span.e-ungroupbutton,
.e-bigger .e-control.e-grid .e-toggleungroup,
.e-control.e-grid.e-bigger .e-groupsort,
.e-control.e-grid.e-bigger span.e-ungroupbutton,
.e-control.e-grid.e-bigger .e-toggleungroup {
  margin-left: 0;
  margin-top: 0;
}

.e-bigger .e-control.e-grid span.e-ungroupbutton.e-icons,
.e-control.e-grid.e-bigger span.e-ungroupbutton.e-icons {
  font-size: 13px;
  margin-left: 0;
  margin-top: 1px;
}

.e-bigger .e-control.e-grid .e-groupsort,
.e-control.e-grid.e-bigger .e-groupsort {
  margin-right: 10px;
  margin-top: 0;
}

.e-bigger .e-control.e-grid.e-rtl .e-groupheadercell,
.e-bigger .e-control.e-grid.e-rtl .e-groupheadercell:hover,
.e-control.e-grid.e-bigger.e-rtl .e-groupheadercell,
.e-control.e-grid.e-bigger.e-rtl .e-groupheadercell:hover {
  margin: 8px 10px 0 0;
  padding: 0 10px;
}

.e-bigger .e-control.e-grid.e-rtl span.e-ungroupbutton.e-icons,
.e-control.e-grid.e-bigger.e-rtl span.e-ungroupbutton.e-icons {
  margin-right: 8px;
  margin-top: 0;
  padding-top: 0;
}

.e-bigger .e-control.e-grid .e-groupcaption,
.e-control.e-grid.e-bigger .e-groupcaption {
  line-height: 27px;
}

.e-bigger .e-control.e-grid .e-ccdlg .e-dlg-content,
.e-control.e-grid.e-bigger .e-ccdlg .e-dlg-content {
  margin: 30px 0 20px;
  padding: 25px 25px 5px 12px;
}

.e-bigger .e-control.e-grid .e-ccdlg .e-ccul-ele,
.e-control.e-grid.e-bigger .e-ccdlg .e-ccul-ele {
  padding: 0;
}

.e-bigger .e-control.e-grid .e-ccdlg .e-cc-searchdiv,
.e-control.e-grid.e-bigger .e-ccdlg .e-cc-searchdiv {
  padding-left: 7px;
}

.e-bigger .e-control.e-grid .e-ccdlg .e-checkbox-wrapper.e-control.e-keyboard,
.e-control.e-grid.e-bigger .e-ccdlg .e-checkbox-wrapper.e-control.e-keyboard {
  padding-left: 13px;
}

.e-bigger .e-control.e-grid .e-ccdlg li.e-cclist,
.e-control.e-grid.e-bigger .e-ccdlg li.e-cclist {
  padding: 11px 0;
}

.e-bigger .e-control.e-grid .e-ccdlg .e-toolbar .e-ccdiv,
.e-control.e-grid.e-bigger .e-ccdlg .e-toolbar .e-ccdiv {
  margin-top: 0;
}

.e-control.e-grid {
  border-radius: 0;
  border-style: none solid solid;
  border-width: 1px;
  display: block;
  font-family: "Segoe UI", "GeezaPro", "DejaVu Serif", sans-serif, "-apple-system", "BlinkMacSystemFont";
  font-size: 13px;
  height: auto;
  position: relative;
}

.e-control.e-grid .e-gridheader {
  user-select: none;
}

.e-control.e-grid .e-gridheader .e-icons {
  font-size: 10px;
}

.e-control.e-grid .e-toolbar {
  border-bottom: 0;
  border-left: 0;
  border-right: 0;
  border-top: 1px solid #eaeaea;
}

.e-control.e-grid .e-toolbar-items .e-toolbar-item.e-search-wrapper {
  padding-bottom: 4px;
  padding-top: 4px;
}

.e-control.e-grid .e-toolbar-items .e-toolbar-item.e-search-wrapper .e-search {
  margin-bottom: 0;
  opacity: .6;
  width: 230px;
}

.e-control.e-grid .e-toolbar-items .e-toolbar-item.e-search-wrapper .e-search.e-input-focus {
  opacity: 1;
}

.e-control.e-grid .e-toolbar-items .e-toolbar-item.e-search-wrapper .e-search .e-search-icon {
  min-width: 30px;
}

.e-control.e-grid .e-groupdroparea.e-grouped {
  padding: 8px 0 5px;
}

.e-control.e-grid.e-default .e-gridheader.e-stackedfilter .e-grouptopleftcell,
.e-control.e-grid.e-default.e-horizontallines .e-gridheader.e-stackedfilter .e-grouptopleftcell {
  border-top: 0;
}

.e-control.e-grid.e-default .e-gridheader.e-stackedfilter tr:first-child th.e-grouptopleftcell,
.e-control.e-grid.e-default.e-horizontallines .e-gridheader.e-stackedfilter tr:first-child th.e-grouptopleftcell {
  border-bottom: 1px solid;
}

.e-control.e-grid.e-default.e-verticallines .e-gridheader.e-stackedfilter tr:first-child th.e-grouptopleftcell,
.e-control.e-grid.e-default.e-hidelines .e-gridheader.e-stackedfilter tr:first-child th.e-grouptopleftcell {
  border-bottom: 0;
}

.e-control.e-grid.e-default .e-gridheader.e-stackedfilter tr:last-child th.e-grouptopleftcell,
.e-control.e-grid.e-default.e-horizontallines .e-gridheader.e-stackedfilter tr:last-child th.e-grouptopleftcell {
  border-top: 1px solid;
}

.e-control.e-grid.e-default.e-hidelines .e-gridheader.e-stackedfilter tr:last-child th.e-grouptopleftcell,
.e-control.e-grid.e-default.e-verticallines .e-gridheader.e-stackedfilter tr:last-child th.e-grouptopleftcell {
  border-top: 0;
}

.e-control.e-grid.e-default .e-grouptopleftcell {
  border-top: 1px solid;
}

.e-control.e-grid.e-default .e-gridheader .e-headercell.e-firstheader,
.e-control.e-grid.e-default.e-horizontallines .e-headercell.e-firstheader {
  border-left: 1px solid;
}

.e-control.e-grid.e-default.e-hidelines .e-headercell.e-firstheader {
  border-left: 0;
}

.e-control.e-grid.e-default.e-verticallines .e-grouptopleftcell,
.e-control.e-grid.e-default.e-bothlines .e-grouptopleftcell,
.e-control.e-grid.e-default.e-hidelines .e-grouptopleftcell {
  border-top-width: 0;
}

.e-control.e-grid.e-default.e-verticallines .e-detailrowcollapse,
.e-control.e-grid.e-default.e-verticallines .e-detailrowexpand, .e-control.e-grid.e-default.e-hidelines .e-detailrowcollapse,
.e-control.e-grid.e-default.e-hidelines .e-detailrowexpand {
  border-top-width: 0;
}

.e-control.e-grid.e-default.e-horizontallines .e-grouptopleftcell {
  border-top: 1px solid;
}

.e-control.e-grid .e-gridheader .e-headercell .e-rhandler,
.e-control.e-grid .e-gridheader .e-headercell .e-rsuppress {
  height: 100%;
  position: absolute;
  right: 0;
  top: 0;
  width: 4px;
}

.e-control.e-grid.e-device .e-gridheader .e-headercell .e-rhandler {
  width: 14px;
}

.e-control.e-grid.e-rtl .e-gridheader .e-headercell .e-rhandler,
.e-control.e-grid.e-rtl .e-gridheader .e-headercell .e-rsuppress {
  left: 0;
  right: auto;
}

.e-control.e-grid.e-resize-lines .e-gridheader th.e-headercell.e-lastcell .e-rhandler {
  border-right-width: 0;
}

.e-control.e-grid .e-rhelper {
  position: absolute;
  width: 1px;
}

.e-control.e-grid.e-device .e-ricon::before {
  border-bottom: 6px solid transparent;
  border-right: 6px solid;
  border-top: 6px solid transparent;
  content: '';
  display: block;
  height: 0;
  position: absolute;
  right: 4px;
  top: 4px;
  width: 20px;
}

.e-control.e-grid.e-device .e-ricon::after {
  border-bottom: 6px solid transparent;
  border-left: 6px solid;
  border-top: 6px solid transparent;
  content: '';
  display: block;
  height: 0;
  left: 4px;
  position: absolute;
  top: 4px;
  width: 20px;
  z-index: 3;
}

.e-control.e-grid.e-rcursor,
.e-control.e-grid .e-gridheader .e-rcursor {
  cursor: col-resize;
}

.e-control.e-grid .e-table {
  border-collapse: separate;
  table-layout: fixed;
  width: 100%;
}

.e-control.e-grid .e-tableborder {
  border-right: 1px solid;
}

.e-control.e-grid .e-virtualtable {
  overflow: hidden;
  will-change: transform;
  z-index: 1;
}

.e-control.e-grid .e-headercelldiv {
  border: 0 none;
  display: block;
  font-size: 14px;
  font-weight: normal;
  height: 29px;
  line-height: 29px;
  margin: 0;
  overflow: hidden;
  padding: 0 1px 0;
  text-align: left;
  user-select: none;
}

.e-control.e-grid .e-headercelldiv.e-headerchkcelldiv {
  overflow: visible;
}

.e-control.e-grid .e-gridheader .e-headercontent .e-rightalign .e-headercelldiv.e-headerchkcelldiv {
  padding: 0 .6em;
}

.e-control.e-grid .e-gridheader .e-headercontent .e-centeralign .e-headercelldiv.e-headerchkcelldiv {
  padding: 0 .6em;
}

.e-control.e-grid .e-columnheader {
  cursor: pointer;
}

.e-control.e-grid .e-columnheader.e-defaultcursor {
  cursor: default;
}

.e-control.e-grid .e-gridheader .e-headercell,
.e-control.e-grid .e-gridheader .e-detailheadercell {
  user-select: none;
}

.e-control.e-grid .e-gridcontent tr:first-child td {
  border-top: 0 none;
}

.e-control.e-grid .e-gridheader tr:first-child th {
  border-top: 0 none;
}

.e-control.e-grid .e-gridheader tr th:last-child.e-filterbarcell {
  padding-right: 10px;
}

.e-control.e-grid .e-gridheader tr th:last-child {
  padding-right: 10px;
}

.e-control.e-grid .e-gridheader tr th:first-child {
  padding-left: 10px;
}

.e-control.e-grid .e-gridheader tr th:first-child.e-filterbarcell {
  padding-left: 10px;
}

.e-control.e-grid .e-gridheader {
  border-bottom-style: solid;
  border-bottom-width: 1px;
  border-top-style: solid;
  border-top-width: 1px;
}

.e-control.e-grid .e-frozenhdrcont {
  border-bottom-width: 0;
}

.e-control.e-grid .e-frozenhdrcont table tr:not(.e-editedrow):first-child td {
  border-top-style: solid;
  border-top-width: 1px;
}

.e-control.e-grid.e-bothlines .e-filterbarcell,
.e-control.e-grid.e-bothlines .e-filterbarcelldisabled {
  border-width: 1px 0 0 1px;
}

.e-control.e-grid .e-headercell,
.e-control.e-grid .e-detailheadercell {
  border-style: solid;
  border-width: 0;
  font-size: 14px;
  font-weight: normal;
  height: 36px;
  overflow: hidden;
  padding: 0 8px 0;
  position: relative;
  text-align: left;
}

.e-control.e-grid.e-device .e-headercell {
  padding: 0 8px;
}

.e-control.e-grid.e-device .e-headercell:first-child {
  padding: 0 8px 0 10px;
}

.e-control.e-grid.e-device .e-headercell:last-child {
  padding: 0 10px 0 8px;
}

.e-control.e-grid .e-rowcell {
  border-style: solid;
  border-width: 1px 0 0;
  display: table-cell;
  font-size: 13px;
  line-height: 21px;
  overflow: hidden;
  padding: 7px 8px;
  vertical-align: middle;
  white-space: nowrap;
  width: auto;
}

.e-control.e-grid .e-frozenheader table tr td.e-rowcell {
  height: 35px;
}

.e-control.e-grid .e-frozencontent table tr td:first-child:empty,
.e-control.e-grid .e-movablecontent table tr td:first-child:empty,
.e-control.e-grid .e-frozenhdrcont table tr td:first-child:empty {
  height: 35px;
}

.e-control.e-grid .e-rowcell:first-child,
.e-control.e-grid .e-summarycell:first-child {
  padding-left: 10px;
}

.e-control.e-grid .e-rowcell:last-child,
.e-control.e-grid .e-summarycell:last-child {
  padding-right: 10px;
}

.e-control.e-grid .e-unboundcell,
.e-control.e-grid .e-editedrow .e-normaledit .e-unboundcell,
.e-control.e-grid .e-addedrow .e-normaledit .e-unboundcell {
  padding-bottom: 4px;
  padding-top: 4px;
}

.e-control.e-grid .e-unboundcelldiv > button {
  margin: 0 3.5px;
}

.e-control.e-grid .e-unboundcelldiv {
  margin: 0 -3.5px;
}

.e-control.e-grid .e-summarycell {
  border-style: solid;
  border-width: 1px 0 0;
  font-size: 14px;
  font-weight: normal;
  height: auto;
  line-height: 21px;
  padding: 7px 8px;
  white-space: normal;
  word-wrap: break-word;
}

.e-control.e-grid .e-summarycontent .e-frozenfootercontent {
  float: left;
  width: min-content;
}

.e-control.e-grid .e-summarycontent .e-movablefootercontent {
  height: inherit;
  overflow: hidden;
}

.e-control.e-grid .e-summarycontent .e-indentcell {
  border-width: 0;
}

.e-control.e-grid .e-summarycontent .e-detailindentcelltop {
  border-width: 1px 0 0;
}

.e-control.e-grid.e-device .e-rowcell,
.e-control.e-grid.e-device .e-summarycell {
  padding: 7px 8px;
}

.e-control.e-grid.e-device .e-rowcell:first-child,
.e-control.e-grid.e-device .e-summarycell:first-child {
  padding: 7px 8px 7px 10px;
}

.e-control.e-grid.e-device .e-rowcell:last-child,
.e-control.e-grid.e-device .e-summarycell:last-child {
  padding: 7px 10px 7px 8px;
}

.e-control.e-grid td.e-rowcell.e-checkbox {
  padding: 8px 8px;
}

.e-control.e-grid td.e-rowcell.e-checkbox input[type='checkbox'] {
  margin-top: 5px;
}

.e-control.e-grid.e-default .e-rowcell.e-lastrowcell {
  border-bottom-width: 1px;
}

.e-control.e-grid.e-bothlines .e-rowcell.e-lastrowcell {
  border-bottom-width: 1px;
}

.e-control.e-grid.e-bothlines .e-rowcell {
  border-width: 1px 0 0 1px;
}

.e-control.e-grid .e-gridheader table th[rowspan],
.e-control.e-grid.e-device .e-gridheader table th[rowspan] {
  padding-bottom: 4px;
  vertical-align: bottom;
}

.e-control.e-grid .e-emptyrow td {
  line-height: 21px;
  padding: .7em;
}

.e-control.e-grid.e-responsive .e-rowcell,
.e-control.e-grid.e-responsive .e-headercelldiv {
  text-overflow: ellipsis;
  white-space: nowrap;
}

.e-control.e-grid.e-responsive .e-rowcell.e-gridchkbox,
.e-control.e-grid.e-responsive .e-headercelldiv.e-headerchkcelldiv {
  text-overflow: clip;
}

.e-control.e-grid.e-default .e-headercell,
.e-control.e-grid.e-default .e-detailheadercell {
  border-width: 0;
}

.e-control.e-grid [aria-selected] + tr .e-detailindentcell {
  border-top-style: solid;
  border-top-width: 1px;
}

.e-control.e-grid.e-default.e-verticallines .e-headercell,
.e-control.e-grid.e-default.e-verticallines .e-detailheadercell {
  border-width: 0 0 0 1px;
}

.e-control.e-grid.e-default.e-verticallines .e-headercell.e-stackedheadercell {
  border-bottom: 1px solid;
}

.e-control.e-grid.e-default .e-stackedheadercell {
  border-width: 1px 0 1px 1px;
}

.e-control.e-grid.e-default.e-verticallines tr th:first-child:not(.e-firstcell) {
  border-left-width: 0;
}

.e-control.e-grid.e-default.e-bothlines .e-headercell,
.e-control.e-grid.e-default.e-bothlines .e-detailheadercell {
  border-width: 0 0 0 1px;
}

.e-control.e-grid.e-default table th[rowspan] {
  border-width: 0 0 0 1px;
}

.e-control.e-grid tr th.e-firstcell {
  border-left-style: solid;
  border-left-width: 1px;
}

.e-control.e-grid.e-default tr td:first-child,
.e-control.e-grid.e-default tr th.e-headercell:first-child:not(.e-firstcell),
.e-control.e-grid.e-default tr th.e-detailheadercell:first-child,
.e-control.e-grid.e-default tr th.e-filterbarcell:first-child {
  border-left-width: 0;
}

.e-control.e-grid.e-default .e-gridheader th.e-firstcell.e-movablefirst {
  border-left-width: 0;
}

.e-control.e-grid .e-hide {
  display: none;
}

.e-control.e-grid .e-rowcell,
.e-control.e-grid .e-gridcontent,
.e-control.e-grid .e-gridheader,
.e-control.e-grid .e-headercontent,
.e-control.e-grid .e-groupdroparea,
.e-control.e-grid .e-gridfooter,
.e-control.e-grid .e-summarycontent {
  overflow: hidden;
  vertical-align: middle;
}

.e-control.e-grid .e-sortfilterdiv {
  float: right;
  height: 16px;
  margin: -21px 11px;
  padding: 2px;
  width: 16px;
}

.e-control.e-grid .e-gridheader .e-rightalign .e-sortfilterdiv {
  float: left;
  margin: -21px 10px 0 0;
}

.e-control.e-grid .e-gridheader .e-sortfilter .e-rightalign .e-headercelldiv,
.e-control.e-grid .e-gridheader .e-rightalign .e-stackedheadercelldiv {
  padding: 0;
}

.e-control.e-grid .e-gridheader .e-sortfilter .e-rightalign.e-fltr-icon .e-headercelldiv {
  margin: 0 20px 0 10px;
}

.e-control.e-grid .e-gridheader .e-sortfilter .e-fltr-icon .e-headercelldiv {
  margin: 0 20px 0 0;
}

.e-control.e-grid .e-gridheader .e-sortfilter .e-headercelldiv,
.e-control.e-grid .e-gridheader .e-stackedheadercelldiv,
.e-control.e-grid .e-gridheader .e-headercell .e-headercelldiv.e-headerchkcelldiv {
  padding: 0 1px;
}

.e-control.e-grid .e-filtermenudiv {
  float: right;
  margin: -24px -7px;
  padding: 6px;
  text-align: right;
}

.e-control.e-grid .e-filtermenudiv:hover {
  cursor: pointer;
}

.e-control.e-grid.e-print-grid {
  left: -1000px;
  top: -1000px;
}

.e-control.e-grid .e-flmenu-valuediv {
  padding: 24px 0 0;
}

.e-control.e-grid .e-flbldcontent {
  padding: 18px 18px 0;
}

.e-control.e-grid .e-flblbtn {
  width: 110px;
}

.e-control.e-grid .e-sortnumber {
  border-radius: 55%;
  display: inline-block;
  float: right;
  font-size: 9px;
  height: 15px;
  line-height: 15px;
  margin: 9px 25px 0 2px;
  text-align: center;
  width: 15px;
}

.e-control.e-grid .e-gridheader .e-rightalign .e-sortnumber {
  float: left;
  margin: 9px 0 0 15px;
}

.e-control.e-grid .e-gridheader .e-fltr-icon .e-sortfilterdiv {
  margin: -20px 30px 0 0;
}

.e-control.e-grid .e-gridheader .e-rightalign.e-fltr-icon .e-sortfilterdiv {
  margin: -20px 0 0 8px;
}

.e-control.e-grid.e-wrap .e-gridheader .e-rightalign .e-sortnumber {
  margin: 3px 2px 0 5px;
}

.e-control.e-grid.e-wrap .e-gridheader .e-sortnumber {
  margin: 3px 5px 0 2px;
}

.e-control.e-grid.e-wrap .e-gridheader .e-sortfilterdiv {
  margin: -15px -5px;
}

.e-control.e-grid .e-movableheader .e-editcell.e-normaledit,
.e-control.e-grid .e-frozenheader .e-editcell.e-normaledit {
  border-top-color: transparent;
}

.e-control.e-grid .e-columnmenu {
  bottom: 8px;
  padding: 5px;
  position: absolute;
  right: 5px;
}

.e-control.e-grid.e-rtl .e-columnmenu {
  left: 5px;
  right: auto;
}

.e-control.e-grid [class^='e-'] {
  box-sizing: border-box;
}

.e-control.e-grid .e-detailrowcollapse,
.e-control.e-grid .e-detailrowexpand {
  border-style: solid;
  border-width: 1px 0 0;
  cursor: pointer;
}

.e-control.e-grid .e-detailindentcell {
  border-right-style: solid;
  border-right-width: 1px;
}

.e-control.e-grid .e-detailcell {
  border-top-style: solid;
  border-top-width: 1px;
  padding: .3em;
}

.e-control.e-grid.e-verticallines .e-rowcell,
.e-control.e-grid.e-verticallines .e-filterbarcell {
  border-width: 0 0 0 1px;
}

.e-control.e-grid.e-hidelines .e-rowcell,
.e-control.e-grid.e-horizontallines .e-headercell,
.e-control.e-grid.e-hidelines .e-headercell,
.e-control.e-grid.e-horizontallines .e-detailheadercell,
.e-control.e-grid.e-hidelines .e-detailheadercell,
.e-control.e-grid.e-hidelines tr th.e-firstcell,
.e-control.e-grid.e-hidelines .e-filterbarcell {
  border-width: 0;
}

.e-control.e-grid.e-horizontallines .e-headercell.e-stackedheadercell {
  border-width: 0 0 1px 1px;
}

.e-control.e-grid.e-horizontallines .e-rowcell {
  border-width: 1px 0 0;
}

.e-control.e-grid.e-horizontallines .e-filterbarcell {
  border-width: 1px 0 0;
}

.e-control.e-grid.e-horizontallines .e-rowcell.e-lastrowcell, .e-control.e-grid.e-verticallines .e-rowcell.e-lastrowcell, .e-control.e-grid.e-hidelines .e-rowcell.e-lastrowcell {
  border-bottom-width: 1px;
}

.e-control.e-grid.e-horizontallines .e-detailrowvisible, .e-control.e-grid.e-verticallines .e-detailrowvisible, .e-control.e-grid.e-hidelines .e-detailrowvisible, .e-control.e-grid.e-bothlines .e-detailrowvisible {
  border-left-width: 0;
}

.e-control.e-grid.e-verticallines .e-firstchildrow .e-rowcell,
.e-control.e-grid.e-verticallines .e-firstchildrow .e-detailrowcollapse,
.e-control.e-grid.e-verticallines .e-firstchildrow .e-detailrowexpand, .e-control.e-grid.e-hidelines .e-firstchildrow .e-rowcell,
.e-control.e-grid.e-hidelines .e-firstchildrow .e-detailrowcollapse,
.e-control.e-grid.e-hidelines .e-firstchildrow .e-detailrowexpand {
  border-top-width: 1px;
}

.e-control.e-grid .e-filterbarcell .e-icons::before {
  display: block;
  margin: 0 auto;
}

.e-control.e-grid .e-filterbarcell .e-filtertext::-webkit-search-cancel-button,
.e-control.e-grid .e-search input::-webkit-search-cancel-button {
  display: none;
}

.e-control.e-grid .e-filterbarcell .e-filtertext::-ms-clear,
.e-control.e-grid .e-search input::-ms-clear {
  display: none;
}

.e-control.e-grid .e-filterbarcell,
.e-control.e-grid .e-filterbarcelldisabled {
  border-collapse: collapse;
  border-style: solid;
  border-width: 1px 0 0;
  cursor: default;
  height: 36px;
  overflow: hidden;
  padding: 0 8px;
  vertical-align: middle;
}

.e-control.e-grid .e-filterbarcell input {
  border-radius: 0;
  border-style: solid;
  border-width: 1px;
  font-size: 13px;
  font-weight: normal;
  height: 32px;
  padding-right: 24px;
  text-indent: 10px;
  width: 100%;
}

.e-control.e-grid.e-device .e-filterbarcell {
  padding: 3px 8px 2px 8px;
}

.e-control.e-grid.e-device .e-filterbarcell:first-child {
  padding: 3px 8px 2px 10px;
}

.e-control.e-grid.e-device .e-filterbarcell:last-child {
  padding: 3px 10px 2px 8px;
}

.e-control.e-grid .e-searchclear {
  float: right;
  position: relative;
}

.e-control.e-grid.e-rtl .e-searchclear {
  float: left;
  position: relative;
  top: 10px;
}

.e-control.e-grid .e-checkboxlist {
  height: 200px;
  margin-top: 5px;
  min-height: 160px;
  overflow-y: auto;
}

.e-control.e-grid .e-chk-hidden {
  height: 1px;
  opacity: 0;
  width: 1px;
}

.e-control.e-grid .e-checkselect,
.e-control.e-grid .e-checkselectall {
  margin: 0;
  opacity: 0;
  position: absolute;
  width: 0;
}

.e-control.e-grid .e-rowcell .e-checkbox-wrapper,
.e-control.e-grid .e-rowcell .e-css.e-checkbox-wrapper {
  height: 23px;
  line-height: 21px;
}

.e-control.e-grid .e-dialog.e-checkboxfilter,
.e-control.e-grid .e-dialog.e-flmenu {
  min-width: 250px;
}

.e-control.e-grid .e-dialog.e-checkboxfilter {
  min-height: 348px;
}

.e-control.e-grid .e-ftrchk {
  padding-bottom: 7px;
  padding-top: 7px;
}

.e-control.e-grid .e-excelfilter .e-contextmenu-wrapper,
.e-control.e-grid .e-excelfilter .e-contextmenu-wrapper ul {
  display: block;
}

.e-control.e-grid .e-excelfilter .e-contextmenu-wrapper ul {
  padding-bottom: 4px;
  position: static;
}

.e-control.e-grid .e-excelfilter .e-contextmenu-wrapper ul li {
  height: 36px;
  line-height: 36px;
}

.e-control.e-grid .e-excelfilter .e-contextmenu-wrapper ul li .e-menu-icon {
  height: 36px;
  line-height: 36px;
  margin-right: 10px;
}

.e-control.e-grid.e-rtl .e-excelfilter .e-contextmenu-wrapper ul li .e-menu-icon {
  margin-right: 0;
}

.e-control.e-grid .e-excelfilter .e-contextmenu-wrapper ul .e-menu-item .e-caret {
  height: 36px;
  line-height: 36px;
}

.e-control.e-grid .e-excelfilter .e-contextmenu-wrapper ul {
  border: 0;
  box-shadow: none;
  max-width: 300px;
  padding-bottom: 4px;
  position: static;
}

.e-control.e-grid .e-excelfilter .e-footer-content {
  border-style: solid;
  border-width: 0;
}

.e-control.e-grid .e-excel-menu {
  z-index: 1000;
}

.e-control.e-grid .e-excelfilter .e-dlg-content {
  padding-top: 0;
}

.e-control.e-grid .e-filterdiv,
.e-control.e-grid .e-fltrtempdiv {
  padding: 2px 0;
  position: relative;
  text-align: center;
  width: 100%;
}

.e-control.e-grid .e-pager {
  border-bottom: transparent;
  border-left: transparent;
  border-right: transparent;
}

.e-control.e-grid .e-gridpopup {
  font-weight: normal;
  position: absolute;
  user-select: none;
  z-index: 99999;
}

.e-control.e-grid .e-gridpopup .e-content {
  border-radius: 4px;
  border-style: solid;
  border-width: 1px;
  font-size: 14px;
  padding: 4px;
}

.e-control.e-grid .e-lastsummarycell {
  border-right: 1px solid;
}

.e-control.e-grid .e-footerpadding {
  padding-right: 14px;
}

.e-control.e-grid .e-gridpopup span {
  border: 1px solid transparent;
  cursor: pointer;
  display: inline-block;
  height: 26px;
  padding: 4px;
  width: 26px;
}

.e-control.e-grid .e-gridpopup .e-tail::before,
.e-control.e-grid .e-gridpopup .e-tail::after {
  border: 10px solid transparent;
  content: '';
  height: 0;
  left: 8px;
  position: absolute;
  width: 0;
}

.e-control.e-grid .e-gridpopup .e-downtail::after {
  top: 34px;
}

.e-control.e-grid .e-gridpopup .e-uptail::after {
  top: -17px;
}

.e-control.e-grid .e-gridpopup .e-uptail::before {
  top: -19px;
}

.e-control.e-grid .e-gridpopup .e-sortdirect,
.e-control.e-grid .e-gridpopup .e-rowselect {
  line-height: 18px;
  text-indent: 1px;
}

.e-control.e-grid .e-cloneproperties {
  border-style: solid;
  border-width: 1px;
  font-size: 14px;
  font-weight: normal;
  opacity: 1;
  overflow: hidden;
  padding: 4px 5px;
  text-align: center;
  user-select: none;
  vertical-align: middle;
  white-space: nowrap;
  z-index: 10;
}

.e-control.e-grid .e-defaultcur {
  cursor: default;
}

.e-control.e-grid .e-notallowedcur {
  cursor: not-allowed;
}

.e-control.e-grid .e-cloneproperties table {
  border-spacing: 0;
}

.e-control.e-grid .e-headerclone {
  border-radius: 0;
  font-size: 14px;
  font-weight: normal;
  line-height: 29px;
}

.e-control.e-grid .e-draganddrop {
  border-width: 0 1px 1px;
  font-weight: normal;
  padding: 0;
}

.e-control.e-grid .e-draganddrop .e-rowcell {
  opacity: .8;
}

.e-control.e-grid.e-default .e-gridheader th.e-firstcell {
  border-left-style: solid;
  border-left-width: 1px;
}

.e-control.e-grid.e-bothlines .e-gridheader th.e-stackedheadercell {
  border-bottom-style: solid;
  border-bottom-width: 1px;
  border-left-style: solid;
  border-left-width: 1px;
}

.e-control.e-grid.e-default.e-hidelines .e-gridheader th.e-firstcell {
  border-left-width: 0;
}

.e-control.e-grid .e-gridheader .e-headercontent .e-reorderuparrow,
.e-control.e-grid .e-gridheader .e-headercontent .e-reorderdownarrow {
  font-size: 7px;
  position: absolute;
  z-index: 10;
}

.e-control.e-grid td.e-active {
  font-weight: normal;
}

.e-control.e-grid td.e-cellselectionbackground {
  font-weight: normal;
}

.e-control.e-grid .e-groupdroparea {
  height: auto;
  min-height: 59px;
}

.e-control.e-grid .e-griddragarea {
  border: 1px solid;
  opacity: .6;
  position: absolute;
}

.e-control.e-grid .e-gdclone {
  border-radius: 0;
  padding: 2px;
}

.e-control.e-grid .e-content {
  -webkit-overflow-scrolling: touch;
  overflow-x: auto;
  overflow-y: scroll;
  position: relative;
}

.e-control.e-grid.e-ungroupdrag .e-columnheader,
.e-control.e-grid.e-ungroupdrag .e-groupdroparea,
.e-control.e-grid.e-rowdrag .e-columnheader,
.e-control.e-grid.e-rowdrag .e-groupdroparea {
  cursor: not-allowed;
}

.e-control.e-grid .e-groupdroparea,
.e-control.e-grid.e-ungroupdrag .e-gridcontent,
.e-control.e-grid.e-rowdrag .e-gridcontent {
  cursor: default;
}

.e-control.e-grid .e-groupdroparea {
  border-style: solid none;
  border-width: 1px 0 0;
}

.e-control.e-grid .e-groupdroparea {
  border-top-width: 1px;
  font-size: 17px;
  font-weight: lighter;
  opacity: 1;
  padding: 16px 0 8px;
  text-align: center;
  text-indent: 1pt;
  user-select: none;
  width: 100%;
}

.e-control.e-grid .e-grouptext {
  display: inline-block;
  margin-right: 8px;
  overflow: hidden;
  text-overflow: ellipsis;
  white-space: nowrap;
  width: 57px;
}

.e-control.e-grid .e-grid-icon {
  float: left;
}

.e-control.e-grid .e-groupheadercell,
.e-control.e-grid .e-groupheadercell:hover {
  border: 1px solid;
  border-collapse: collapse;
  border-radius: 0;
  cursor: pointer;
  font-size: 14px;
  font-weight: normal;
  height: 26px;
  margin: 8px 0 0 8px;
  overflow: hidden;
  padding: 1px 8px;
  vertical-align: middle;
}

.e-control.e-grid .e-groupheadercell:hover {
  border: 1px solid;
  padding: 1px 8px;
}

.e-control.e-grid .e-groupheadercell span {
  display: inline-block;
  float: left;
  height: 26px;
  line-height: 22px;
  padding: 0;
  vertical-align: middle;
}

.e-control.e-grid .e-groupheadercell .e-grouptext {
  line-height: 22px;
}

.e-control.e-grid .e-groupheadercell .e-ungroupbutton {
  font-size: 11px;
  line-height: 25px;
}

.e-control.e-grid.e-device .e-groupheadercell span {
  line-height: 26px;
}

.e-control.e-grid.e-device .e-groupheadercell .e-ungroupbutton {
  line-height: 28px;
}

.e-control.e-grid .e-groupheadercell .e-cancel {
  padding-right: 12px;
}

.e-control.e-grid .e-groupheadercell .e-icons::before {
  display: inline;
}

.e-control.e-grid .e-groupsort,
.e-control.e-grid .e-ungroupbutton,
.e-control.e-grid .e-toggleungroup {
  font-size: 12px;
  margin-left: 0;
}

.e-control.e-grid .e-groupsort {
  margin-right: 8px;
  margin-top: 0;
}

.e-control.e-grid span.e-ungroupbutton.e-icons {
  margin-left: 0;
  margin-top: 0;
}

.e-control.e-grid .e-grptogglebtn {
  padding: 7px;
}

.e-control.e-grid .e-icon-gdownarrow {
  font-size: 12px;
  text-indent: 8px;
}

.e-control.e-grid .e-icon-grightarrow {
  font-size: 12px;
  text-indent: 8px;
}

.e-control.e-grid .e-recordplusexpand {
  padding-top: 5px;
}

.e-control.e-grid .e-indentcell {
  border-style: solid;
  border-width: 0 1px 0 0;
}

.e-control.e-grid .e-indentcell.e-indentcelltop, .e-control.e-grid .e-indentcell.e-detailindentcelltop {
  border-width: 1px 0 0;
}

.e-control.e-grid .e-recordplusexpand,
.e-control.e-grid .e-recordpluscollapse {
  border-style: solid;
  border-width: 1px 0 0;
  cursor: pointer;
}

.e-control.e-grid .e-groupcaption {
  border-style: solid;
  border-width: 1px 0 0;
  display: table-cell;
  font-size: 15px;
  line-height: 20px;
  overflow: hidden;
  padding: .7em;
  text-overflow: ellipsis;
  vertical-align: middle;
  white-space: nowrap;
  width: auto;
}

.e-control.e-grid .e-virtualtable .e-groupcaption {
  line-height: 21px;
  padding: 7px 8px;
}

.e-control.e-grid .e-headercontent {
  border-style: solid;
  border-width: 0;
}

.e-control.e-grid .e-stackedheadercell {
  border-width: 1px 0 1px 1px;
  white-space: nowrap;
}

.e-control.e-grid .e-noselect {
  user-select: none;
}

.e-control.e-grid .e-toolbar .e-btn-icon.e-icons.e-columnchooser-btn {
  font-size: 9px;
  line-height: 3;
}

.e-control.e-grid .e-toolbar-item.e-cc.e-ccdiv.e-cc-toolbar {
  margin-top: -2px;
  padding: 2px 0 0;
}

.e-control.e-grid .e-edit-dialog .e-dlg-content {
  position: relative;
}

.e-control.e-grid .e-edit-dialog {
  min-height: 350px;
}

.e-control.e-grid .e-griderror label {
  display: inline !important;
}

.e-control.e-grid .e-tooltip-wrap.e-griderror {
  z-index: 1000;
}

.e-control.e-grid .e-tooltip-wrap.e-griderror .e-arrow-tip.e-tip-top {
  left: 44%;
}

.e-control.e-grid .e-normaledit .e-rowcell {
  padding-bottom: 0;
  padding-top: 0;
}

.e-control.e-grid.e-device .e-normaledit .e-rowcell {
  padding-bottom: 0;
  padding-top: 0;
}

.e-control.e-grid .e-normaledit {
  border-top: 0;
  padding: 0;
}

.e-control.e-grid .e-gridcontent .e-normaledit .e-rowcell {
  border-top: 1px solid;
}

.e-control.e-grid .e-gridcontent tr.e-row:first-child .e-rowcell {
  border-top: 0;
}

.e-control.e-grid.e-device .e-editedbatchcell.e-rowcell,
.e-control.e-grid .e-editedbatchcell.e-rowcell,
.e-control.e-grid.e-device .e-gridcontent .e-normaledit .e-rowcell {
  padding-bottom: 0;
  padding-top: 0;
}

.e-control.e-grid .e-editedbatchcell,
.e-control.e-grid td.e-boolcell {
  padding-left: 8px;
  padding-right: 8px;
}

.e-control.e-grid td.e-boolcell input {
  margin: 3px 3px 3px 4px;
}

.e-control.e-grid td.e-boolcell.e-rowcell {
  padding-bottom: 5px;
  padding-top: 5px;
}

.e-control.e-grid .e-dialog .e-gridform .e-rowcell {
  border: 0;
  padding: 0;
}

.e-control.e-grid .e-dialog table {
  border-collapse: separate;
  border-spacing: 11px;
}

.e-control.e-grid .e-row .e-input-group .e-input.e-field,
.e-control.e-grid .e-row .e-input-focus .e-input.e-field {
  font-family: "Segoe UI", "GeezaPro", "DejaVu Serif", sans-serif, "-apple-system", "BlinkMacSystemFont";
  font-size: 13px;
  padding-bottom: 0;
  padding-top: 0;
}

.e-control.e-grid .e-row .e-input-group {
  margin-bottom: 2px;
  margin-top: 2px;
  vertical-align: middle;
}

.e-control.e-grid .e-defaultcell.e-ralign,
.e-control.e-grid .e-editedrow .e-defaultcell.e-ralign,
.e-control.e-grid .e-defaultcell.e-ralign:focus,
.e-control.e-grid .e-editedrow .e-defaultcell.e-ralign:focus {
  padding-right: 10px;
}

.e-control.e-grid .e-dlg-content .e-defaultcell.e-ralign,
.e-control.e-grid .e-dlg-content .e-defaultcell.e-ralign:focus {
  padding-right: 0;
}

.e-control.e-grid .e-hiddenrow {
  display: none;
}

.e-control.e-grid .e-columnchooserdiv {
  float: right;
  margin: -12px;
}

.e-control.e-grid .e-ccdlg .e-dlg-content {
  margin: 22px 0 20px;
  overflow: visible;
  padding: 25px 25px 0 12px;
}

.e-control.e-grid .e-ccdlg .e-checkbox-wrapper.e-control.e-keyboard {
  padding-left: 13px;
}

.e-control.e-grid .e-ccdlg .e-main-div {
  box-sizing: border-box;
  position: relative;
}

.e-control.e-grid .e-ccdlg .e-ccul-ele {
  margin: 13px 0;
  padding: 0;
}

.e-control.e-grid .e-ccdlg li.e-cclist {
  padding: 7px 0 6px;
}

.e-control.e-grid .e-ccdlg .e-checkbox-wrapper .e-frame {
  margin-left: 0;
}

.e-control.e-grid .e-ccdlg label.e-cc {
  margin: 0;
}

.e-control.e-grid .e-ccdlg .e-footer-content {
  border-style: solid;
  border-width: 0;
}

.e-control.e-grid .e-ccdlg .e-cc-contentdiv {
  height: 196px;
  overflow-y: auto;
}

.e-control.e-grid .e-ccdlg .e-cc-searchdiv {
  border-style: solid;
  border-width: 1px;
  left: 6px;
  opacity: 0.6;
  position: absolute;
  right: 0;
  top: -46px;
}

.e-control.e-grid .e-ccdlg .e-cc-searchdiv span.e-ccsearch-icon.e-icons {
  float: right;
  opacity: .6;
  padding: 2px 2px;
}

.e-control.e-grid .e-ccdlg .e-cc-searchdiv span.e-ccsearch-icon.e-cc-cancel {
  font-size: 11px;
  padding: 4px 2px;
}

.e-control.e-grid .e-ccdlg .e-cc-searchdiv.e-input-focus {
  opacity: 1;
}

.e-control.e-grid .e-ccdlg .e-cc-searchdiv.e-input-focus span.e-ccsearch-icon.e-icons {
  opacity: 1;
}

.e-control.e-grid .e-ccdlg .e-innerdiv.e-ccnmdiv {
  height: 60px;
  padding: 23px;
  text-align: center;
}

.e-control.e-grid .e-ccdlg .e-checkbox-wrapper .e-label {
  text-overflow: ellipsis;
}

.e-control.e-grid .e-ccdlg .e-cc-chbox {
  margin: 3px;
  vertical-align: middle;
}

.e-control.e-grid .e-ccdlg .e-cc-lab-name {
  padding: 7px;
  text-overflow: ellipsis;
  vertical-align: middle;
}

.e-control.e-grid .e-ccdlg .e-cc.e-input,
.e-control.e-grid .e-ccdlg .e-cc.e-input:focus {
  border: 0;
  padding-bottom: 1px;
  padding-left: 4px;
  padding-top: 1px;
}

.e-control.e-grid .e-frozenhdrcont .e-headercontent > .e-table,
.e-control.e-grid .e-frozenhdrcont .e-frozenheader > .e-table,
.e-control.e-grid .e-frozenhdrcont .e-movableheader > .e-table {
  border-bottom: 1px solid;
}

.e-control.e-grid .e-frozenheader > .e-table,
.e-control.e-grid .e-frozencontent > .e-table {
  border-left: 0;
  border-right: 1px solid;
}

.e-control.e-grid .e-frozenheader {
  float: left;
  width: min-content;
}

.e-control.e-grid.e-rtl .e-frozenheader > .e-table,
.e-control.e-grid.e-rtl .e-frozencontent > .e-table {
  border-left: 1px solid;
  border-right: 0;
}

.e-control.e-grid.e-rtl .e-frozenheader {
  float: right;
}

.e-control.e-grid.e-rtl .e-frozencontent {
  float: right;
}

.e-control.e-grid .e-movableheader {
  overflow: hidden;
}

.e-control.e-grid .e-frozenhdrcont {
  -ms-touch-action: none;
}

.e-control.e-grid .e-frozencontent {
  -ms-touch-action: none;
  float: left;
  height: inherit;
  overflow: hidden;
  width: min-content;
}

.e-control.e-grid .e-movablecontent {
  height: inherit;
  overflow: scroll;
}

.e-control.e-grid .e-columnchooser::before {
  line-height: 1.9;
}

.e-control.e-grid .e-toolbar .e-ccdiv .e-columnchooser.e-cctbn-icon {
  font-size: 15px;
  vertical-align: middle;
}

.e-control.e-grid .e-toolbar .e-ccdiv {
  margin-top: -2px;
  padding: 0 10px;
}

.e-control.e-grid.e-rtl .e-tableborder {
  border-left: 1px solid;
  border-right: 0;
}

.e-control.e-grid.e-rtl .e-headercell,
.e-control.e-grid.e-rtl .e-detailheadercell {
  border-width: 0;
  text-align: right;
}

.e-control.e-grid.e-rtl .e-headercell .e-headercelldiv,
.e-control.e-grid.e-rtl .e-headercell .e-headercelldiv.e-headerchkcelldiv,
.e-control.e-grid.e-rtl .e-detailheadercell .e-headercelldiv,
.e-control.e-grid.e-rtl .e-detailheadercell .e-headercelldiv.e-headerchkcelldiv {
  padding: 1px 0;
  text-align: right;
}

.e-control.e-grid.e-rtl .e-headercell .e-headercelldiv .e-sortnumber,
.e-control.e-grid.e-rtl .e-headercell .e-headercelldiv.e-headerchkcelldiv .e-sortnumber,
.e-control.e-grid.e-rtl .e-detailheadercell .e-headercelldiv .e-sortnumber,
.e-control.e-grid.e-rtl .e-detailheadercell .e-headercelldiv.e-headerchkcelldiv .e-sortnumber {
  float: left;
  margin: 7px 0 0 3px;
}

.e-control.e-grid.e-rtl .e-headercell .e-filterbarcell input,
.e-control.e-grid.e-rtl .e-detailheadercell .e-filterbarcell input {
  border-width: 1px;
}

.e-control.e-grid.e-rtl .e-headercell .e-sortfilterdiv,
.e-control.e-grid.e-rtl .e-detailheadercell .e-sortfilterdiv {
  float: left;
  margin: -22px 0 0 10px;
}

.e-control.e-grid.e-rtl .e-headercell.e-leftalign .e-sortfilterdiv,
.e-control.e-grid.e-rtl .e-detailheadercell.e-leftalign .e-sortfilterdiv {
  float: right;
  margin: -14px 3px;
}

.e-control.e-grid.e-rtl .e-headercell.e-leftalign .e-headercelldiv,
.e-control.e-grid.e-rtl .e-detailheadercell.e-leftalign .e-headercelldiv {
  padding: 0 25px 0 .7em;
}

.e-control.e-grid.e-rtl .e-headercell.e-leftalign .e-headercelldiv .e-sortnumber,
.e-control.e-grid.e-rtl .e-detailheadercell.e-leftalign .e-headercelldiv .e-sortnumber {
  float: right;
  margin: 6px 5px 0 0;
}

.e-control.e-grid.e-rtl .e-headercell.e-rightalign .e-sortnumber,
.e-control.e-grid.e-rtl .e-detailheadercell.e-rightalign .e-sortnumber {
  float: left;
  margin: 7px 0 0 30px;
}

.e-control.e-grid.e-rtl .e-rowcell:first-child,
.e-control.e-grid.e-rtl .e-summarycell:first-child {
  padding-right: 10px;
}

.e-control.e-grid.e-rtl .e-rowcell:last-child,
.e-control.e-grid.e-rtl .e-summarycell:last-child {
  padding-left: 10px;
}

.e-control.e-grid.e-rtl.e-wrap .e-gridheader .e-rightalign .e-sortnumber {
  margin: 3px 5px 0 2px;
}

.e-control.e-grid.e-rtl.e-wrap .e-gridheader .e-sortnumber {
  margin: 3px 5px 0 2px;
}

.e-control.e-grid.e-rtl.e-wrap .e-gridheader .e-sortfilterdiv {
  margin: -17px 17px;
}

.e-control.e-grid.e-rtl.e-wrap .e-gridheader .e-rightalign .e-sortfilterdiv {
  margin: -17px 17px;
}

.e-control.e-grid.e-rtl .e-gridheader .e-fltr-icon .e-sortfilterdiv {
  margin: -22px 0 0 10px;
}

.e-control.e-grid.e-rtl .e-gridheader .e-rightalign.e-fltr-icon .e-sortfilterdiv {
  margin: -22px 0 0 22px;
}

.e-control.e-grid.e-rtl .e-gridheader .e-sortfilter .e-rightalign.e-fltr-icon .e-headercelldiv {
  margin: 0;
}

.e-control.e-grid.e-rtl .e-gridheader .e-sortfilter .e-fltr-icon .e-headercelldiv {
  margin: 0;
}

.e-control.e-grid.e-rtl.e-verticallines .e-grouptopleftcell,
.e-control.e-grid.e-rtl.e-bothlines .e-grouptopleftcell,
.e-control.e-grid.e-rtl.e-hidelines .e-grouptopleftcell {
  border-top: 0;
}

.e-control.e-grid.e-rtl .e-grouptopleftcell {
  border-top: 1px solid;
}

.e-control.e-grid.e-rtl .e-grouptext {
  margin-left: 0;
  margin-right: 8px;
}

.e-control.e-grid.e-rtl .e-groupheadercell span {
  float: right;
}

.e-control.e-grid.e-rtl.e-horizontallines .e-grouptopleftcell {
  border-top: 1px solid;
}

.e-control.e-grid.e-rtl .e-rowcell {
  border-width: 1px 0 0;
}

.e-control.e-grid.e-rtl .e-filterbarcell,
.e-control.e-grid.e-rtl .e-filterbarcelldisabled {
  border-width: 1px 0 0;
}

.e-control.e-grid.e-rtl .e-lastrowcell {
  border-width: 1px 1px 1px 0;
}

.e-control.e-grid.e-rtl .e-gridheader .e-rightalign .e-sortfilterdiv {
  margin: -22px 0 0 10px;
}

.e-control.e-grid.e-rtl .e-cloneproperties {
  border-width: 1px 1px 3px;
}

.e-control.e-grid.e-rtl tr td:first-child,
.e-control.e-grid.e-rtl tr th:first-child {
  border-left-width: 0;
}

.e-control.e-grid.e-rtl.e-default.e-bothlines tr td:first-child:not(.e-summarycell),
.e-control.e-grid.e-rtl.e-default.e-bothlines tr th:first-child {
  border-left-width: 1px;
}

.e-control.e-grid.e-rtl.e-default.e-bothlines tr td:first-child.e-detailrowcollapse,
.e-control.e-grid.e-rtl.e-default.e-bothlines tr td:first-child.e-detailrowexpand {
  border-left-width: 0;
}

.e-control.e-grid.e-rtl.e-default tr td:last-child,
.e-control.e-grid.e-rtl.e-default tr th:last-child {
  border-left: 0;
}

.e-control.e-grid.e-rtl.e-default.e-verticallines tr th:last-child {
  border-left: 1px solid;
}

.e-control.e-grid.e-rtl.e-default .e-gridheader tr th:last-child {
  padding-left: 10px;
  padding-right: 10px;
}

.e-control.e-grid.e-rtl.e-default .e-gridheader tr th:first-child {
  padding-left: 10px;
  padding-right: 10px;
}

.e-control.e-grid.e-rtl.e-default th:first-child
.e-control.e-grid.e-rtl.e-default .e-headercell,
.e-control.e-grid.e-rtl.e-default .e-detailheadercell {
  border-width: 0;
}

.e-control.e-grid.e-rtl.e-default .e-rowcell {
  border-width: 1px 0 0;
}

.e-control.e-grid.e-rtl.e-default.e-verticallines .e-headercell,
.e-control.e-grid.e-rtl.e-default.e-verticallines .e-rowcell,
.e-control.e-grid.e-rtl.e-default.e-verticallines .e-filterbarcell,
.e-control.e-grid.e-rtl.e-default.e-verticallines .e-detailheadercell,
.e-control.e-grid.e-rtl.e-default.e-verticallines .e-gridheader th.e-firstcell {
  border-width: 0 0 0 1px;
}

.e-control.e-grid.e-rtl.e-default.e-verticallines tr th:first-child:not(.e-firstcell) {
  border-left-width: 1px;
}

.e-control.e-grid.e-rtl.e-default .e-stackedheadercell,
.e-control.e-grid.e-rtl.e-default.e-horizontallines .e-stackedheadercell {
  border-width: 0 1px 1px 0;
}

.e-control.e-grid.e-rtl.e-default .e-gridheader th.e-firstcell,
.e-control.e-grid.e-rtl.e-default.e-horizontallines .e-gridheader th.e-firstcell {
  border-left-width: 0;
  border-right-width: 1px;
}

.e-control.e-grid.e-rtl.e-default.e-bothlines .e-gridheader th.e-firstcell {
  border-left-width: 1px;
  border-right-width: 0;
}

.e-control.e-grid.e-rtl.e-default .e-gridheader .e-headercell.e-firstheader,
.e-control.e-grid.e-rtl.e-default.e-horizontallines .e-headercell.e-firstheader {
  border-left: 0;
}

.e-control.e-grid.e-rtl.e-default.e-hidelines .e-gridheader th.e-firstcell {
  border-left: 0;
  border-right: 0;
}

.e-control.e-grid.e-rtl.e-default .e-gridheader .e-headercell.e-firstheader,
.e-control.e-grid.e-rtl.e-default.e-horizontallines .e-gridheader .e-headercell.e-firstheader {
  border-right: 1px solid;
}

.e-control.e-grid.e-rtl.e-default.e-verticallines .e-gridheader .e-headercell.e-firstheader {
  border-right: 0;
}

.e-control.e-grid.e-rtl.e-default.e-verticallines .e-gridheader .e-headercell.e-firstheader,
.e-control.e-grid.e-rtl.e-default.e-verticallines .e-gridheader th.e-grouptopleftcell.e-lastgrouptopleftcell {
  border-left: 1px solid;
}

.e-control.e-grid.e-rtl.e-default.e-verticallines .e-headercell.e-stackedheadercell {
  border-bottom: 1px solid;
}

.e-control.e-grid.e-rtl.e-default .e-detailcell,
.e-control.e-grid.e-rtl.e-default.e-bothlines .e-detailcell {
  border-right-style: solid;
  border-right-width: 1px;
}

.e-control.e-grid.e-rtl .e-cc-searchdiv span.e-ccsearch-icon.e-icons {
  float: left;
}

.e-control.e-grid.e-rtl .e-groupsort,
.e-control.e-grid.e-rtl .e-ungroupbutton,
.e-control.e-grid.e-rtl .e-toggleungroup {
  margin-left: 0;
  margin-right: 8px;
}

.e-control.e-grid.e-rtl span.e-ungroupbutton.e-icons {
  margin-left: 0;
  margin-right: 6px;
  padding-top: 0;
}

.e-control.e-grid.e-rtl.e-default.e-bothlines .e-headercell,
.e-control.e-grid.e-rtl.e-default.e-bothlines .e-detailheadercell {
  border-width: 0 0 0 1px;
}

.e-control.e-grid.e-rtl.e-default table th[rowspan] {
  border-width: 0 1px 0 0;
}

.e-control.e-grid.e-rtl.e-default.e-bothlines .e-gridheader .e-headercell.e-firstheader,
.e-control.e-grid.e-rtl.e-default.e-bothlines .e-gridheader th.e-grouptopleftcell.e-lastgrouptopleftcell {
  border-left: 1px solid;
  border-right: 0;
}

.e-control.e-grid.e-rtl.e-bothlines .e-gridheader th.e-stackedheadercell {
  border-bottom-style: solid;
  border-bottom-width: 1px;
}

.e-control.e-grid.e-rtl.e-bothlines .e-filterbarcell,
.e-control.e-grid.e-rtl.e-bothlines .e-filterbarcelldisabled {
  border-width: 1px 0 0 1px;
}

.e-control.e-grid.e-rtl.e-bothlines .e-rowcell,
.e-control.e-grid.e-rtl.e-bothlines .e-rowcell.e-lastrowcell {
  border-width: 1px 0 0 1px;
}

.e-control.e-grid.e-rtl.e-verticallines .e-rowcell,
.e-control.e-grid.e-rtl.e-verticallines .e-filterbarcell {
  border-width: 1px 0 0 1px;
}

.e-control.e-grid.e-rtl.e-hidelines .e-rowcell,
.e-control.e-grid.e-rtl.e-hidelines .e-headercell,
.e-control.e-grid.e-rtl.e-hidelines .e-detailheadercell,
.e-control.e-grid.e-rtl.e-hidelines .e-filterbarcell {
  border-width: 0;
}

.e-control.e-grid.e-rtl.e-horizontallines .e-rowcell {
  border-width: 1px 0 0;
}

.e-control.e-grid.e-rtl.e-horizontallines .e-filterbarcell {
  border-width: 1px 0 0;
}

.e-control.e-grid.e-rtl.e-horizontallines .e-rowcell.e-lastrowcell, .e-control.e-grid.e-rtl.e-verticallines .e-rowcell.e-lastrowcell, .e-control.e-grid.e-rtl.e-hidelines .e-rowcell.e-lastrowcell {
  border-bottom-width: 1px;
}

.e-control.e-grid.e-rtl.e-verticallines .e-firstchildrow .e-rowcell, .e-control.e-grid.e-rtl.e-hidelines .e-firstchildrow .e-rowcell {
  border-top-width: 1px;
}

.e-control.e-grid.e-rtl .e-groupheadercell .e-icons::before {
  display: inline-block;
}

.e-control.e-grid.e-rtl .e-groupheadercell .e-cancel {
  padding-left: 23px;
  padding-right: 0;
  padding-top: 2px;
}

.e-control.e-grid.e-rtl .e-groupheadercell,
.e-control.e-grid.e-rtl .e-groupheadercell:hover {
  margin-left: 0;
  margin-right: 8px;
  padding: 1px 0 1px 8px;
}

.e-control.e-grid.e-rtl .e-groupheadercell,
.e-control.e-grid.e-rtl .e-groupheadercell:hover {
  float: right;
}

.e-control.e-grid.e-rtl .e-groupdroparea {
  text-align: center;
}

.e-control.e-grid.e-rtl .e-ungroupbutton {
  float: left;
}

.e-control.e-grid.e-rtl tr:not(.e-summaryrow) td.e-indentcell {
  border-style: solid;
  border-width: 0 0 0 1px;
}

.e-control.e-grid.e-rtl .e-defaultcell.e-ralign,
.e-control.e-grid.e-rtl .e-row .e-input.e-defaultcell.e-ralign,
.e-control.e-grid.e-rtl .e-defaultcell.e-ralign:focus,
.e-control.e-grid.e-rtl .e-editedrow .e-defaultcell.e-ralign:focus {
  padding-left: 10px;
}

.e-control.e-grid.e-rtl .e-detailindentcell {
  border-left-style: solid;
  border-left-width: 1px;
  border-right-width: 0;
}

.e-control.e-grid.e-rtl .e-filtermenudiv {
  float: left;
  margin: -24px 0 -24px -5px;
  padding: 7px;
}

.e-control.e-grid.e-wrap .e-rowcell,
.e-control.e-grid.e-wrap .e-columnheader .e-stackedheadercelldiv,
.e-control.e-grid.e-wrap .e-columnheader .e-headercelldiv {
  height: Auto;
  line-height: 18px;
  overflow-wrap: break-word;
  text-overflow: clip;
  white-space: normal;
  word-wrap: break-word;
}

.e-control.e-grid.e-wrap .e-columnheader .e-headercelldiv,
.e-control.e-grid .e-columnheader.e-wrap .e-headercelldiv {
  margin-bottom: 2px;
  margin-top: 0;
}

.e-control.e-grid.e-wrap .e-columnheader .e-filtermenudiv {
  line-height: 18px;
}

.e-control.e-grid .e-columnheader.e-wrap .e-headercelldiv,
.e-control.e-grid .e-columnheader.e-wrap .e-stackedheadercelldiv,
.e-control.e-grid .e-gridcontent.e-wrap .e-rowcell,
.e-control.e-grid .e-frozenhdrcont.e-wrap .e-rowcell {
  height: Auto;
  line-height: 18px;
  overflow-wrap: break-word;
  text-overflow: clip;
  white-space: normal;
  word-wrap: break-word;
}

.e-control.e-grid .e-stackedheadercelldiv {
  overflow: hidden;
  text-overflow: ellipsis;
}

.e-control.e-grid .e-columnheader.e-wrap .e-sortfilterdiv,
.e-control.e-grid.e-wrap .e-columnheader .e-sortfilterdiv {
  margin: -17px 11px 0 0;
}

.e-control.e-grid .e-columnheader.e-wrap .e-rightalign .e-sortfilterdiv,
.e-control.e-grid.e-wrap .e-columnheader .e-rightalign .e-sortfilterdiv {
  margin: -17px 10px 0 0;
}

.e-control.e-grid .e-columnheader.e-wrap .e-fltr-icon .e-sortfilterdiv,
.e-control.e-grid.e-wrap .e-columnheader .e-fltr-icon .e-sortfilterdiv {
  margin: -17px 30px 0 0;
}

.e-control.e-grid .e-columnheader.e-wrap .e-fltr-icon.e-rightalign .e-sortfilterdiv,
.e-control.e-grid.e-wrap .e-columnheader .e-fltr-icon.e-rightalign .e-sortfilterdiv {
  margin: -14px 8px;
}

.e-control.e-grid .e-columnheader.e-wrap .e-icon-group::before,
.e-control.e-grid.e-wrap .e-columnheader .e-icon-group::before {
  display: inline-block;
}

.e-control.e-grid.e-responsive .e-rowcell.e-gridclip,
.e-control.e-grid.e-responsive .e-gridclip .e-headercelldiv,
.e-control.e-grid.e-responsive .e-stackedheadercelldiv.e-gridclip {
  text-overflow: clip;
}

.e-control.e-grid .e-clipboard {
  cursor: default;
  height: 1px;
  left: -1000px;
  overflow: hidden;
  position: fixed;
  resize: none;
  top: -1000px;
  width: 1px;
}

.e-grid-min-height .e-rowcell {
  line-height: 0;
  padding-bottom: 0;
  padding-top: 0;
}

.e-grid-min-height .e-gridheader .e-headercell,
.e-grid-min-height .e-gridheader .e-detailheadercell,
.e-grid-min-height .e-gridheader .e-headercell .e-headercelldiv {
  height: auto;
}

.e-grid-min-height .e-gridcontent .e-groupcaption {
  line-height: normal;
  padding: 0 .7em;
}

.e-grid-min-height .e-summarycell {
  line-height: normal;
  padding: 0 8px;
}

.e-device.e-grid-min-height .e-rowcell,
.e-device.e-grid-min-height .e-rowcell:first-child,
.e-device.e-grid-min-height .e-rowcell:last-child {
  padding-bottom: 0;
  padding-top: 0;
}

.e-bigger .e-grid.e-grid-min-height .e-rowcell,
.e-bigger .e-grid.e-grid-min-height .e-rowcell:first-child,
.e-bigger .e-grid.e-grid-min-height .e-rowcell:last-child {
  line-height: 0;
  padding-bottom: 0;
  padding-top: 0;
}

.e-bigger .e-wrap.e-grid-min-height .e-rowcell {
  line-height: 18px;
}

.e-bigger .e-wrap.e-grid-min-height .e-frozencontent table tr td:first-child:empty,
.e-bigger .e-wrap.e-grid-min-height .e-movablecontent table tr td:first-child:empty,
.e-bigger .e-wrap.e-grid-min-height .e-frozenhdrcont table tr td:first-child:empty {
  height: 18px;
}

.e-rtl .e-grid .e-headercell,
.e-rtl .e-grid .e-detailheadercell,
.e-rtl .e-grid .e-headercelldiv,
.e-rtl .e-grid .e-headercelldiv.e-headerchkcelldiv {
  text-align: right;
}

/*! Grid theme */
.e-control.e-grid {
  border-color: #eaeaea;
}

.e-control.e-grid .e-content {
  background-color: #fff;
}

.e-control.e-grid .e-icons {
  color: #333;
}

.e-control.e-grid .e-table {
  background-color: #fff;
}

.e-control.e-grid .e-focused:not(.e-menu-item) {
  box-shadow: 0 0 0 1px #666 inset;
}

.e-control.e-grid .e-gridheader .e-icons:not(.e-icon-hide):not(.e-check) {
  color: #333;
}

.e-control.e-grid .e-groupdroparea .e-icons {
  color: #333;
}

.e-control.e-grid.e-default {
  background-color: "";
}

.e-control.e-grid .e-tableborder {
  border-right-color: #eaeaea;
}

.e-control.e-grid .e-gridheader {
  background-color: #fff;
  border-bottom-color: #eaeaea;
  border-top-color: #eaeaea;
  color: #666;
}

.e-control.e-grid .e-gridcontent tr:first-child td {
  border-top-color: transparent;
}

.e-control.e-grid th.e-headercell[aria-sort='ascending'] .e-headertext,
.e-control.e-grid th.e-headercell[aria-sort='descending'] .e-headertext,
.e-control.e-grid th.e-headercell[aria-sort='ascending'] .e-sortfilterdiv,
.e-control.e-grid th.e-headercell[aria-sort='descending'] .e-sortfilterdiv {
  color: #666;
  opacity: 1;
}

.e-control.e-grid.e-default.e-verticallines .e-headercell.e-stackedheadercell {
  border-color: #eaeaea;
}

.e-control.e-grid.e-default.e-horizontallines .e-grouptopleftcell {
  border-color: #eaeaea;
}

.e-control.e-grid.e-default .e-gridheader.e-stackedfilter tr:last-child th.e-grouptopleftcell,
.e-control.e-grid.e-default.e-horizontallines .e-gridheader.e-stackedfilter tr:last-child th.e-grouptopleftcell,
.e-control.e-grid.e-default .e-gridheader.e-stackedfilter tr:first-child th.e-grouptopleftcell,
.e-control.e-grid.e-default.e-horizontallines .e-gridheader.e-stackedfilter tr:first-child th.e-grouptopleftcell {
  border-color: #eaeaea;
}

.e-control.e-grid.e-default .e-gridheader .e-headercell.e-firstheader,
.e-control.e-grid.e-default.e-horizontallines .e-headercell.e-firstheader {
  border-color: #eaeaea;
}

.e-control.e-grid .e-filterbarcell input {
  border-color: #eaeaea;
}

.e-control.e-grid .e-gridcontent {
  background-color: #fff;
}

.e-control.e-grid .e-gridfooter {
  background-color: #f6f6f6;
}

.e-control.e-grid .e-headercontent {
  border-color: #eaeaea;
}

.e-control.e-grid .e-headercell,
.e-control.e-grid .e-detailheadercell {
  background-color: #fff;
  border-color: #eaeaea;
}

.e-control.e-grid [aria-selected] + tr .e-detailindentcell {
  border-color: #eaeaea;
}

.e-control.e-grid tr th.e-firstcell {
  border-left-color: #eaeaea;
  border-right-color: #eaeaea;
}

.e-control.e-grid .e-rowcell,
.e-control.e-grid .e-detailrowcollapse,
.e-control.e-grid .e-detailrowexpand {
  color: #333;
  opacity: 1;
}

.e-control.e-grid .e-summarycell {
  background-color: #fff;
  border-color: #eaeaea;
  color: #666;
}

.e-control.e-grid .e-summaryrow .e-summarycell,
.e-control.e-grid .e-summaryrow .e-templatecell,
.e-control.e-grid .e-summarycontent .e-indentcell,
.e-control.e-grid .e-indentcell.e-detailindentcelltop {
  background-color: #f6f6f6;
  border-color: #eaeaea;
  color: #666;
}

.e-control.e-grid .e-rowcell,
.e-control.e-grid .e-groupcaption,
.e-control.e-grid .e-indentcell,
.e-control.e-grid .e-recordplusexpand,
.e-control.e-grid .e-recordpluscollapse,
.e-control.e-grid .e-detailrowcollapse,
.e-control.e-grid .e-detailrowexpand,
.e-control.e-grid .e-detailindentcell,
.e-control.e-grid .e-detailcell {
  border-color: #eaeaea;
}

.e-control.e-grid.e-default .e-grouptopleftcell {
  border-color: #eaeaea;
}

.e-control.e-grid .e-frozenhdrcont .e-headercontent > .e-table,
.e-control.e-grid .e-frozenhdrcont .e-frozenheader > .e-table,
.e-control.e-grid .e-frozenhdrcont .e-movableheader > .e-table {
  border-bottom-color: #3f3f3f;
}

.e-control.e-grid .e-frozenheader > .e-table,
.e-control.e-grid .e-frozencontent > .e-table {
  border-right-color: #3f3f3f;
}

.e-control.e-grid.e-rtl .e-frozenheader > .e-table,
.e-control.e-grid.e-rtl .e-frozencontent > .e-table {
  border-left-color: #3f3f3f;
}

.e-control.e-grid.e-gridhover tr[role='row']:not(.e-editedrow):hover .e-rowcell:not(.e-cellselectionbackground):not(.e-active):not(.e-updatedtd):not(.e-indentcell),
.e-control.e-grid.e-gridhover tr[role='row']:hover .e-detailrowcollapse:not(.e-cellselectionbackground):not(.e-active):not(.e-updatedtd):not(.e-indentcell),
.e-control.e-grid.e-gridhover tr[role='row']:hover .e-detailrowexpand:not(.e-cellselectionbackground):not(.e-active):not(.e-updatedtd):not(.e-indentcell) {
  background-color: #f4f4f4;
  color: #333;
}

.e-control.e-grid .e-sortnumber {
  background-color: #bbbdc0;
  color: #333;
}

.e-control.e-grid .e-col-menu.e-filter-popup {
  box-shadow: 0 0 10px 0 rgba(0, 0, 0, 0.2);
}

.e-control.e-grid td.e-active {
  background: #bcbcbc;
  color: #333;
}

.e-control.e-grid td.e-cellselectionbackground {
  background: #bcbcbc;
  color: #333;
}

.e-control.e-grid .e-filterbarcell,
.e-control.e-grid .e-filterbarcelldisabled {
  background-color: #fff;
  background-image: none;
  border-color: #eaeaea;
}

.e-control.e-grid .e-filtered::before {
  color: #3f3f3f;
}

.e-control.e-grid .e-gridpopup .e-content {
  background-color: #fff;
  border-color: #eaeaea;
}

.e-control.e-grid .e-gridpopup span:hover,
.e-control.e-grid .e-gridpopup .e-spanclicked {
  border-color: #333;
}

.e-control.e-grid .e-gridpopup .e-downtail::before,
.e-control.e-grid .e-gridpopup .e-downtail {
  border-top-color: #eaeaea;
}

.e-control.e-grid .e-gridpopup .e-downtail::after {
  border-top-color: #fff;
}

.e-control.e-grid .e-gridpopup .e-uptail::before,
.e-control.e-grid .e-gridpopup .e-uptail {
  border-bottom-color: #eaeaea;
}

.e-control.e-grid .e-gridpopup .e-uptail::after {
  border-bottom-color: #fff;
}

.e-control.e-grid .e-cloneproperties {
  background-color: #bcbcbc;
  border-color: #eaeaea;
  color: #333;
}

.e-control.e-grid .e-rhelper {
  background-color: #333;
  cursor: col-resize;
  opacity: 1;
}

.e-control.e-grid.e-device .e-rcursor::before {
  border-right-color: #333;
  opacity: 1;
}

.e-control.e-grid.e-device .e-rcursor::after {
  border-left-color: #333;
  opacity: 1;
}

.e-control.e-grid.e-resize-lines .e-headercell .e-rhandler,
.e-control.e-grid.e-resize-lines .e-headercell .e-rsuppress {
  border-right: 1px solid #eaeaea;
}

.e-control.e-grid.e-resize-lines .e-focused .e-rhandler {
  border: 0 none;
}

.e-control.e-grid.e-resize-lines .e-headercell.e-stackedheadercell {
  border-bottom: 1px solid #eaeaea;
  border-right: 1px solid #eaeaea;
}

.e-control.e-grid.e-rtl.e-resize-lines .e-headercell.e-stackedheadercell,
.e-control.e-grid.e-rtl.e-resize-lines .e-headercell .e-rhandler,
.e-control.e-grid.e-rtl.e-resize-lines .e-headercell .e-rsuppress {
  border-left: 1px solid #eaeaea;
  border-right-width: 0;
}

.e-control.e-grid.e-resize-lines .e-filterbarcell,
.e-control.e-grid.e-rtl.e-resize-lines .e-filterbarcell {
  border-top: 1px solid #eaeaea;
}

.e-control.e-grid .e-draganddrop {
  opacity: .5;
}

.e-control.e-grid .e-griddragarea {
  background-color: #bcbcbc;
  border-color: #bcbcbc;
  color: #333;
}

.e-control.e-grid .e-groupdroparea {
  background-color: #3f3f3f;
  border-top-color: #eaeaea;
  color: #fff;
}

.e-control.e-grid .e-groupdroparea.e-hover {
  background-color: #3f3f3f;
}

.e-control.e-grid .e-groupdroparea.e-grouped {
  background-color: #3f3f3f;
}

.e-control.e-grid .e-groupheadercell {
  background-color: #afafaf;
  border-color: #afafaf;
  border-radius: 0;
  color: #333;
}

.e-control.e-grid .e-groupheadercell:hover {
  background-color: #bcbcbc;
  border-color: #bcbcbc;
}

.e-control.e-grid .e-ungroupbutton:hover {
  color: #333;
  opacity: 1;
}

.e-control.e-grid .e-ungroupbutton {
  opacity: 1px;
}

.e-control.e-grid .e-groupcaption,
.e-control.e-grid .e-indentcell,
.e-control.e-grid .e-recordplusexpand,
.e-control.e-grid .e-recordpluscollapse {
  background-color: #fff;
  color: #333;
}

.e-control.e-grid .e-grouptopleftcell {
  background-color: #fff;
  border-color: #eaeaea;
}

.e-control.e-grid .e-stackedheadercell {
  border-bottom-color: #eaeaea;
}

.e-control.e-grid .e-verticallines tr th {
  border-color: #eaeaea;
}

.e-control.e-grid td.e-updatedtd {
  background-color: #d7f9c7;
  color: #333;
}

.e-control.e-grid .e-gridcontent .e-normaledit .e-rowcell {
  border-top-color: #eaeaea;
}

.e-control.e-grid .e-excelfilter .e-footer-content {
  border-color: rgba(0, 0, 0, 0.12);
  opacity: 1;
}

.e-control.e-grid .e-ccdlg .e-footer-content {
  border-color: rgba(0, 0, 0, 0.12);
  opacity: 1;
}

.e-control.e-grid .e-ccdlg .e-cc-searchdiv {
  border-color: #212121;
}

.e-control.e-grid .e-ccdlg .e-cc-searchdiv.e-input-focus {
  border-color: #3f3f3f;
}

.e-control.e-grid.e-rtl .e-verticallines tr th:first-child:not(.e-firstcell) {
  border-color: #eaeaea;
}

.e-control.e-grid.e-rtl.e-default .e-gridheader .e-headercell.e-firstheader,
.e-control.e-grid.e-rtl.e-default.e-horizontallines .e-headercell.e-firstheader,
.e-control.e-grid.e-rtl.e-default.e-verticallines .e-gridheader .e-headercell.e-firstheader,
.e-control.e-grid.e-rtl.e-default.e-verticallines .e-headercell.e-stackedheadercell,
.e-control.e-grid.e-rtl.e-default.e-verticallines tr th:last-child,
.e-control.e-grid.e-rtl.e-default.e-verticallines .e-gridheader th.e-grouptopleftcell,
.e-control.e-grid.e-rtl.e-default.e-verticallines .e-gridheader th.e-grouptopleftcell.e-lastgrouptopleftcell,
.e-control.e-grid.e-rtl.e-default.e-bothlines .e-gridheader .e-headercell.e-firstheader,
.e-control.e-grid.e-rtl.e-default.e-bothlines .e-gridheader th.e-grouptopleftcell.e-lastgrouptopleftcell {
  border-color: #eaeaea;
}

.e-control.e-grid.e-rtl .e-tableborder {
  border-left-color: #eaeaea;
}

.e-tooltip-wrap.e-griderror,
.e-control.e-tooltip-wrap.e-popup.e-griderror {
  background-color: #fcdbe4;
  border-color: #fcdbe4;
}

.e-tooltip-wrap.e-griderror .e-arrow-tip-inner.e-tip-top,
.e-tooltip-wrap.e-griderror .e-arrow-tip-outer.e-tip-top {
  border-bottom: 8px solid #fcdbe4;
  color: #fcdbe4;
}

.e-tooltip-wrap.e-griderror .e-arrow-tip-outer.e-tip-bottom,
.e-tooltip-wrap.e-griderror .e-arrow-tip-inner.e-tip-bottom {
  border-top: 8px solid #fcdbe4;
  color: #fcdbe4;
}

.e-tooltip-wrap.e-griderror .e-tip-content,
.e-tooltip-wrap.e-griderror .e-tip-content label {
  color: #f44336;
}

/*! button layout */
.e-control.e-btn,
.e-css.e-btn {
  -webkit-font-smoothing: antialiased;
  border: 1px solid;
  border-radius: 0;
  box-sizing: border-box;
  cursor: pointer;
  display: inline-block;
  font-family: "Segoe UI", "GeezaPro", "DejaVu Serif", sans-serif, "-apple-system", "BlinkMacSystemFont";
  font-size: 14px;
  font-weight: 600;
  justify-content: center;
  line-height: 1.8572em;
  outline: none;
  padding: 2px 20px;
  text-align: center;
  text-decoration: none;
  text-transform: none;
  user-select: none;
  vertical-align: middle;
  white-space: nowrap;
}

.e-control.e-btn:disabled,
.e-css.e-btn:disabled {
  cursor: default;
}

.e-control.e-btn:hover, .e-control.e-btn:focus,
.e-css.e-btn:hover,
.e-css.e-btn:focus {
  text-decoration: none;
}

.e-control.e-btn::-moz-focus-inner,
.e-css.e-btn::-moz-focus-inner {
  border: 0;
  padding: 0;
}

.e-control.e-btn .e-btn-icon,
.e-css.e-btn .e-btn-icon {
  display: inline-block;
  font-size: 14px;
  margin-top: -3px;
  vertical-align: middle;
  width: 1em;
}

.e-control.e-btn .e-btn-icon.e-icon-left,
.e-css.e-btn .e-btn-icon.e-icon-left {
  margin-left: -0.5714em;
  width: 1.929em;
}

.e-control.e-btn .e-btn-icon.e-icon-right,
.e-css.e-btn .e-btn-icon.e-icon-right {
  margin-right: -0.5714em;
  width: 1.929em;
}

.e-control.e-btn .e-btn-icon.e-icon-top,
.e-css.e-btn .e-btn-icon.e-icon-top {
  display: block;
  margin-top: 0;
  padding-bottom: 8px;
  width: auto;
}

.e-control.e-btn .e-btn-icon.e-icon-bottom,
.e-css.e-btn .e-btn-icon.e-icon-bottom {
  display: block;
  margin-top: 0;
  padding-top: 8px;
  width: auto;
}

.e-control.e-btn.e-icon-btn,
.e-css.e-btn.e-icon-btn {
  padding: 2px 8px;
}

.e-control.e-btn.e-top-icon-btn, .e-control.e-btn.e-bottom-icon-btn,
.e-css.e-btn.e-top-icon-btn,
.e-css.e-btn.e-bottom-icon-btn {
  line-height: 1;
  padding: 8px 20px;
}

.e-control.e-btn.e-round,
.e-css.e-btn.e-round {
  border-radius: 50%;
  height: 2.57143em;
  line-height: 1;
  padding: 0;
  width: 2.57143em;
}

.e-control.e-btn.e-round .e-btn-icon,
.e-css.e-btn.e-round .e-btn-icon {
  font-size: 16px;
  line-height: 2.125em;
  margin-top: 0;
  width: auto;
}

.e-control.e-btn.e-rtl .e-icon-right,
.e-css.e-btn.e-rtl .e-icon-right {
  margin-left: -0.5714em;
  margin-right: 0;
}

.e-control.e-btn.e-rtl .e-icon-left,
.e-css.e-btn.e-rtl .e-icon-left {
  margin-left: 0;
  margin-right: -0.5714em;
}

.e-control.e-btn.e-flat,
.e-css.e-btn.e-flat {
  border: 1px solid;
}

.e-control.e-btn.e-small,
.e-css.e-btn.e-small {
  font-size: 12px;
  line-height: 1.5em;
  padding: 3px 16px;
}

.e-control.e-btn.e-small .e-btn-icon,
.e-css.e-btn.e-small .e-btn-icon {
  font-size: 11px;
  width: 0.91em;
}

.e-control.e-btn.e-small .e-btn-icon.e-icon-left,
.e-css.e-btn.e-small .e-btn-icon.e-icon-left {
  margin-left: -0.7273em;
  width: 2.182em;
}

.e-control.e-btn.e-small .e-btn-icon.e-icon-right,
.e-css.e-btn.e-small .e-btn-icon.e-icon-right {
  margin-right: -0.7273em;
  width: 2.182em;
}

.e-control.e-btn.e-small .e-btn-icon.e-icon-top,
.e-css.e-btn.e-small .e-btn-icon.e-icon-top {
  padding-bottom: 6px;
  width: auto;
}

.e-control.e-btn.e-small .e-btn-icon.e-icon-bottom,
.e-css.e-btn.e-small .e-btn-icon.e-icon-bottom {
  padding-top: 6px;
  width: auto;
}

.e-control.e-btn.e-small.e-icon-btn,
.e-css.e-btn.e-small.e-icon-btn {
  padding: 3px 6px;
}

.e-control.e-btn.e-small.e-top-icon-btn, .e-control.e-btn.e-small.e-bottom-icon-btn,
.e-css.e-btn.e-small.e-top-icon-btn,
.e-css.e-btn.e-small.e-bottom-icon-btn {
  line-height: 1;
  padding: 8px 20px;
}

.e-control.e-btn.e-small.e-round,
.e-css.e-btn.e-small.e-round {
  height: 2.5em;
  line-height: 1;
  padding: 0;
  width: 2.5em;
}

.e-control.e-btn.e-small.e-round .e-btn-icon,
.e-css.e-btn.e-small.e-round .e-btn-icon {
  font-size: 14px;
  line-height: 2em;
  width: auto;
}

.e-control.e-btn.e-small.e-rtl .e-icon-right,
.e-css.e-btn.e-small.e-rtl .e-icon-right {
  margin-left: -0.7273em;
  margin-right: 0;
}

.e-control.e-btn.e-small.e-rtl .e-icon-left,
.e-css.e-btn.e-small.e-rtl .e-icon-left {
  margin-left: 0;
  margin-right: btn-small-icon-margin;
}

.e-control.e-btn.e-block,
.e-css.e-btn.e-block {
  display: block;
  width: 100%;
}

.e-bigger .e-control.e-btn,
.e-bigger.e-control.e-btn,
.e-bigger .e-css.e-btn,
.e-bigger.e-css.e-btn {
  font-size: 16px;
  line-height: 2em;
  padding: 3px 24px;
}

.e-bigger .e-control.e-btn .e-btn-icon,
.e-bigger.e-control.e-btn .e-btn-icon,
.e-bigger .e-css.e-btn .e-btn-icon,
.e-bigger.e-css.e-btn .e-btn-icon {
  font-size: 16px;
  width: 1em;
}

.e-bigger .e-control.e-btn .e-btn-icon.e-icon-left,
.e-bigger.e-control.e-btn .e-btn-icon.e-icon-left,
.e-bigger .e-css.e-btn .e-btn-icon.e-icon-left,
.e-bigger.e-css.e-btn .e-btn-icon.e-icon-left {
  margin-left: -0.688em;
  width: 2.25em;
}

.e-bigger .e-control.e-btn .e-btn-icon.e-icon-right,
.e-bigger.e-control.e-btn .e-btn-icon.e-icon-right,
.e-bigger .e-css.e-btn .e-btn-icon.e-icon-right,
.e-bigger.e-css.e-btn .e-btn-icon.e-icon-right {
  margin-right: -0.688em;
  width: 2.25em;
}

.e-bigger .e-control.e-btn .e-btn-icon.e-icon-top,
.e-bigger.e-control.e-btn .e-btn-icon.e-icon-top,
.e-bigger .e-css.e-btn .e-btn-icon.e-icon-top,
.e-bigger.e-css.e-btn .e-btn-icon.e-icon-top {
  padding-bottom: 10px;
  width: auto;
}

.e-bigger .e-control.e-btn .e-btn-icon.e-icon-bottom,
.e-bigger.e-control.e-btn .e-btn-icon.e-icon-bottom,
.e-bigger .e-css.e-btn .e-btn-icon.e-icon-bottom,
.e-bigger.e-css.e-btn .e-btn-icon.e-icon-bottom {
  padding-top: 10px;
  width: auto;
}

.e-bigger .e-control.e-btn.e-icon-btn,
.e-bigger.e-control.e-btn.e-icon-btn,
.e-bigger .e-css.e-btn.e-icon-btn,
.e-bigger.e-css.e-btn.e-icon-btn {
  padding: 3px 11px;
}

.e-bigger .e-control.e-btn.e-top-icon-btn, .e-bigger .e-control.e-btn.e-bottom-icon-btn,
.e-bigger.e-control.e-btn.e-top-icon-btn,
.e-bigger.e-control.e-btn.e-bottom-icon-btn,
.e-bigger .e-css.e-btn.e-top-icon-btn,
.e-bigger .e-css.e-btn.e-bottom-icon-btn,
.e-bigger.e-css.e-btn.e-top-icon-btn,
.e-bigger.e-css.e-btn.e-bottom-icon-btn {
  line-height: 1;
  padding: 10px 24px;
}

.e-bigger .e-control.e-btn.e-round,
.e-bigger.e-control.e-btn.e-round,
.e-bigger .e-css.e-btn.e-round,
.e-bigger.e-css.e-btn.e-round {
  height: 2.875em;
  line-height: 1;
  padding: 0;
  width: 2.875em;
}

.e-bigger .e-control.e-btn.e-round .e-btn-icon,
.e-bigger.e-control.e-btn.e-round .e-btn-icon,
.e-bigger .e-css.e-btn.e-round .e-btn-icon,
.e-bigger.e-css.e-btn.e-round .e-btn-icon {
  font-size: 20px;
  line-height: 2.2em;
  width: auto;
}

.e-bigger .e-control.e-btn.e-rtl .e-icon-right,
.e-bigger.e-control.e-btn.e-rtl .e-icon-right,
.e-bigger .e-css.e-btn.e-rtl .e-icon-right,
.e-bigger.e-css.e-btn.e-rtl .e-icon-right {
  margin-left: -0.688em;
  margin-right: 0;
}

.e-bigger .e-control.e-btn.e-rtl .e-icon-left,
.e-bigger.e-control.e-btn.e-rtl .e-icon-left,
.e-bigger .e-css.e-btn.e-rtl .e-icon-left,
.e-bigger.e-css.e-btn.e-rtl .e-icon-left {
  margin-left: 0;
  margin-right: -0.688em;
}

.e-bigger .e-control.e-btn.e-small,
.e-bigger.e-control.e-btn.e-small,
.e-bigger .e-css.e-btn.e-small,
.e-bigger.e-css.e-btn.e-small {
  font-size: 16px;
  line-height: 2em;
  padding: 1px 22px;
}

.e-bigger .e-control.e-btn.e-small .e-btn-icon,
.e-bigger.e-control.e-btn.e-small .e-btn-icon,
.e-bigger .e-css.e-btn.e-small .e-btn-icon,
.e-bigger.e-css.e-btn.e-small .e-btn-icon {
  font-size: 15px;
  width: 1.0667em;
}

.e-bigger .e-control.e-btn.e-small .e-btn-icon.e-icon-left,
.e-bigger.e-control.e-btn.e-small .e-btn-icon.e-icon-left,
.e-bigger .e-css.e-btn.e-small .e-btn-icon.e-icon-left,
.e-bigger.e-css.e-btn.e-small .e-btn-icon.e-icon-left {
  margin-left: -0.5334em;
  width: 2.1334em;
}

.e-bigger .e-control.e-btn.e-small .e-btn-icon.e-icon-right,
.e-bigger.e-control.e-btn.e-small .e-btn-icon.e-icon-right,
.e-bigger .e-css.e-btn.e-small .e-btn-icon.e-icon-right,
.e-bigger.e-css.e-btn.e-small .e-btn-icon.e-icon-right {
  margin-right: -0.5334em;
  width: 2.1334em;
}

.e-bigger .e-control.e-btn.e-small .e-btn-icon.e-icon-top,
.e-bigger.e-control.e-btn.e-small .e-btn-icon.e-icon-top,
.e-bigger .e-css.e-btn.e-small .e-btn-icon.e-icon-top,
.e-bigger.e-css.e-btn.e-small .e-btn-icon.e-icon-top {
  padding-bottom: 6px;
  width: auto;
}

.e-bigger .e-control.e-btn.e-small .e-btn-icon.e-icon-bottom,
.e-bigger.e-control.e-btn.e-small .e-btn-icon.e-icon-bottom,
.e-bigger .e-css.e-btn.e-small .e-btn-icon.e-icon-bottom,
.e-bigger.e-css.e-btn.e-small .e-btn-icon.e-icon-bottom {
  padding-top: 6px;
  width: auto;
}

.e-bigger .e-control.e-btn.e-small.e-icon-btn,
.e-bigger.e-control.e-btn.e-small.e-icon-btn,
.e-bigger .e-css.e-btn.e-small.e-icon-btn,
.e-bigger.e-css.e-btn.e-small.e-icon-btn {
  padding: 1px 9px;
}

.e-bigger .e-control.e-btn.e-small.e-top-icon-btn, .e-bigger .e-control.e-btn.e-small.e-bottom-icon-btn,
.e-bigger.e-control.e-btn.e-small.e-top-icon-btn,
.e-bigger.e-control.e-btn.e-small.e-bottom-icon-btn,
.e-bigger .e-css.e-btn.e-small.e-top-icon-btn,
.e-bigger .e-css.e-btn.e-small.e-bottom-icon-btn,
.e-bigger.e-css.e-btn.e-small.e-top-icon-btn,
.e-bigger.e-css.e-btn.e-small.e-bottom-icon-btn {
  line-height: 1;
  padding: 10px 24px;
}

.e-bigger .e-control.e-btn.e-small.e-round,
.e-bigger.e-control.e-btn.e-small.e-round,
.e-bigger .e-css.e-btn.e-small.e-round,
.e-bigger.e-css.e-btn.e-small.e-round {
  height: 2.5em;
  line-height: 1;
  padding: 0;
  width: 2.5em;
}

.e-bigger .e-control.e-btn.e-small.e-round .e-btn-icon,
.e-bigger.e-control.e-btn.e-small.e-round .e-btn-icon,
.e-bigger .e-css.e-btn.e-small.e-round .e-btn-icon,
.e-bigger.e-css.e-btn.e-small.e-round .e-btn-icon {
  font-size: 18px;
  line-height: 2.1112em;
  width: auto;
}

.e-bigger .e-control.e-btn.e-small.e-rtl .e-icon-right,
.e-bigger.e-control.e-btn.e-small.e-rtl .e-icon-right,
.e-bigger .e-css.e-btn.e-small.e-rtl .e-icon-right,
.e-bigger.e-css.e-btn.e-small.e-rtl .e-icon-right {
  margin-left: -0.5334em;
  margin-right: 0;
}

.e-bigger .e-control.e-btn.e-small.e-rtl .e-icon-left,
.e-bigger.e-control.e-btn.e-small.e-rtl .e-icon-left,
.e-bigger .e-css.e-btn.e-small.e-rtl .e-icon-left,
.e-bigger.e-css.e-btn.e-small.e-rtl .e-icon-left {
  margin-left: 0;
  margin-right: -0.5334em;
}

/*! button theme */
.e-control.e-btn,
.e-css.e-btn {
  -webkit-tap-highlight-color: transparent;
  background-color: #f4f4f4;
  border-color: #f4f4f4;
  box-shadow: none;
  color: #333;
  transition: box-shadow 280ms cubic-bezier(0.4, 0, 0.2, 1);
}

.e-control.e-btn:hover,
.e-css.e-btn:hover {
  background-color: #eaeaea;
  border-color: #eaeaea;
  box-shadow: none;
  color: #000;
}

.e-control.e-btn:focus,
.e-css.e-btn:focus {
  background-color: #f4f4f4;
  border-color: #eaeaea;
  box-shadow: none;
  color: #333;
  outline: #767676 1px solid;
  outline-offset: 0;
}

.e-control.e-btn:active,
.e-css.e-btn:active {
  background-color: #c8c8c8;
  border-color: #c8c8c8;
  box-shadow: none;
  color: #000;
  outline: #eaeaea 0 solid;
  outline-offset: 0;
}

.e-control.e-btn.e-active,
.e-css.e-btn.e-active {
  background-color: #c8c8c8;
  border-color: #c8c8c8;
  box-shadow: none;
  color: #000;
}

.e-control.e-btn:disabled,
.e-css.e-btn:disabled {
  background-color: #f4f4f4;
  border-color: #f4f4f4;
  box-shadow: none;
  color: #a6a6a6;
}

.e-control.e-btn .e-ripple-element,
.e-css.e-btn .e-ripple-element {
  background-color: transparent;
}

.e-control.e-btn.e-round,
.e-css.e-btn.e-round {
  background-color: #f4f4f4;
  border-color: #f4f4f4;
  color: #333;
}

.e-control.e-btn.e-round:hover,
.e-css.e-btn.e-round:hover {
  background-color: #eaeaea;
  border-color: #eaeaea;
  color: #000;
}

.e-control.e-btn.e-round:focus,
.e-css.e-btn.e-round:focus {
  background-color: #f4f4f4;
  border-color: #eaeaea;
  box-shadow: none;
  color: #333;
  outline: none;
  outline-offset: 0;
}

.e-control.e-btn.e-round:active,
.e-css.e-btn.e-round:active {
  background-color: #c8c8c8;
  border-color: #c8c8c8;
  box-shadow: none;
  color: #000;
  outline: #eaeaea 0 solid;
  outline-offset: 0;
}

.e-control.e-btn.e-round:disabled,
.e-css.e-btn.e-round:disabled {
  background-color: #f4f4f4;
  border-color: #f4f4f4;
  box-shadow: none;
  color: #a6a6a6;
}

.e-control.e-btn.e-round.e-primary:focus,
.e-css.e-btn.e-round.e-primary:focus {
  outline: none;
}

.e-control.e-btn.e-round.e-success:focus,
.e-css.e-btn.e-round.e-success:focus {
  outline: none;
}

.e-control.e-btn.e-round.e-info:focus,
.e-css.e-btn.e-round.e-info:focus {
  outline: none;
}

.e-control.e-btn.e-round.e-warning:focus,
.e-css.e-btn.e-round.e-warning:focus {
  outline: none;
}

.e-control.e-btn.e-round.e-danger:focus,
.e-css.e-btn.e-round.e-danger:focus {
  outline: none;
}

.e-control.e-btn.e-primary,
.e-css.e-btn.e-primary {
…
.e-bigger .e-control.e-dialog.e-quick-dialog {
  min-width: 370px;
}

/*! schedule event window */
.e-schedule-dialog .e-disable {
  display: none;
}

.e-schedule-dialog .e-dlg-header-content {
  padding-bottom: 8px;
}

.e-schedule-dialog .e-dlg-content {
  padding-bottom: 12px;
  position: relative;
}

.e-schedule-dialog .e-event-delete {
  float: left;
}

.e-schedule-dialog .e-subject-container,
.e-schedule-dialog .e-start-container,
.e-schedule-dialog .e-start-time-zone-container,
.e-schedule-dialog .e-description-label {
  padding-right: 8px;
}

.e-schedule-dialog .e-location-container,
.e-schedule-dialog .e-end-container,
.e-schedule-dialog .e-end-time-zone-container {
  padding-left: 8px;
}

.e-schedule-dialog .e-all-day-container {
  padding-right: 16px;
}

.e-schedule-dialog .e-time-zone-row {
  display: flex;
  height: 0;
  margin-bottom: 0;
  overflow: hidden;
  padding-bottom: 0;
  transition: .3s ease-in-out;
  width: 100%;
}

.e-schedule-dialog .e-time-zone-row .e-start-time-zone-container,
.e-schedule-dialog .e-time-zone-row .e-end-time-zone-container {
  display: none;
  transform: translateY(-100%);
}

.e-schedule-dialog .e-time-zone-row.e-enable {
  height: 50px;
  margin-bottom: 12px;
}

.e-schedule-dialog .e-time-zone-row.e-enable .e-start-time-zone-container,
.e-schedule-dialog .e-time-zone-row.e-enable .e-end-time-zone-container {
  display: block;
  transform: translateY(0);
}

.e-schedule-dialog .e-title-location-row,
.e-schedule-dialog .e-start-end-row,
.e-schedule-dialog .e-start-input-container,
.e-schedule-dialog .e-end-input-container {
  display: flex;
  padding-bottom: 12px;
  width: 100%;
}

.e-schedule-dialog .e-resources {
  padding-bottom: 12px;
  width: 100%;
}

.e-schedule-dialog .e-all-day-time-zone-row {
  display: flex;
  padding-bottom: 14px;
  padding-top: 8px;
  width: 100%;
}

.e-schedule-dialog .e-subject-container,
.e-schedule-dialog .e-location-container,
.e-schedule-dialog .e-start-container,
.e-schedule-dialog .e-end-container,
.e-schedule-dialog .e-start-time-zone-container,
.e-schedule-dialog .e-end-time-zone-container {
  width: 50%;
}

.e-schedule-dialog .e-description,
.e-schedule-dialog .e-float-input .e-description {
  height: 50px;
}

.e-schedule-dialog .e-repeat-container,
.e-schedule-dialog .e-input-group .e-input-group-icon.e-icon-disable {
  display: none;
}

.e-schedule-dialog .e-footer-content {
  margin-top: 4px;
}

.e-schedule-dialog.e-rtl .e-all-day-container {
  margin-left: 16px;
  margin-right: 0;
}

.e-schedule-dialog.e-rtl .e-subject-container,
.e-schedule-dialog.e-rtl .e-start-container,
.e-schedule-dialog.e-rtl .e-start-time-zone-container,
.e-schedule-dialog.e-rtl .e-description-label {
  padding-left: 8px;
  padding-right: 0;
}

.e-schedule-dialog.e-rtl .e-location-container,
.e-schedule-dialog.e-rtl .e-end-container,
.e-schedule-dialog.e-rtl .e-end-time-zone-container {
  padding-left: 0;
  padding-right: 8px;
}

.e-schedule-dialog.e-rtl .e-event-delete {
  float: right;
}

.e-ddl.e-popup .e-resource-template {
  display: flex;
  padding: 0 10px;
  text-indent: 10px;
}

.e-ddl.e-popup .e-resource-template .e-resource-color {
  height: 15px;
  margin-top: 10px;
  width: 15px;
}

.e-bigger .e-ddl.e-popup .e-resource-template {
  padding: 0 15px;
}

.e-bigger .e-ddl.e-popup .e-resource-template .e-resource-color {
  margin-top: 15px;
}

.e-bigger .e-schedule-dialog .e-disable {
  display: none;
}

.e-bigger .e-schedule-dialog .e-dlg-header-content {
  padding-bottom: 8px;
}

.e-bigger .e-schedule-dialog .e-dlg-content {
  padding-bottom: 12px;
  position: relative;
}

.e-bigger .e-schedule-dialog .e-event-cancel,
.e-bigger .e-schedule-dialog .e-event-delete {
  border: none;
  box-shadow: none;
}

.e-bigger .e-schedule-dialog .e-footer-content .e-btn.e-event-delete {
  float: left;
  margin-left: 0;
}

.e-bigger .e-schedule-dialog .e-subject-container,
.e-bigger .e-schedule-dialog .e-start-container,
.e-bigger .e-schedule-dialog .e-start-time-zone-container,
.e-bigger .e-schedule-dialog .e-description-label {
  padding-right: 12px;
}

.e-bigger .e-schedule-dialog .e-location-container,
.e-bigger .e-schedule-dialog .e-end-container,
.e-bigger .e-schedule-dialog .e-end-time-zone-container {
  padding-left: 12px;
}

.e-bigger .e-schedule-dialog .e-all-day-container {
  padding-right: 16px;
}

.e-bigger .e-schedule-dialog .e-time-zone-row {
  display: none;
}

.e-bigger .e-schedule-dialog .e-time-zone-row.e-enable {
  display: flex;
}

.e-bigger .e-schedule-dialog .e-title-location-row,
.e-bigger .e-schedule-dialog .e-start-end-row,
.e-bigger .e-schedule-dialog .e-start-input-container,
.e-bigger .e-schedule-dialog .e-end-input-container,
.e-bigger .e-schedule-dialog .e-time-zone-row {
  display: flex;
  padding-bottom: 12px;
  width: 100%;
}

.e-bigger .e-schedule-dialog .e-resources {
  padding-bottom: 12px;
  width: 100%;
}

.e-bigger .e-schedule-dialog .e-all-day-time-zone-row {
  display: flex;
  padding-bottom: 20px;
  padding-top: 0;
  width: 100%;
}

.e-bigger .e-schedule-dialog .e-subject-container,
.e-bigger .e-schedule-dialog .e-location-container,
.e-bigger .e-schedule-dialog .e-start-container,
.e-bigger .e-schedule-dialog .e-end-container,
.e-bigger .e-schedule-dialog .e-start-time-zone-container,
.e-bigger .e-schedule-dialog .e-end-time-zone-container {
  width: 50%;
}

.e-bigger .e-schedule-dialog .e-location-container,
.e-bigger .e-schedule-dialog .e-end-container,
.e-bigger .e-schedule-dialog .e-end-time-zone-container,
.e-bigger .e-schedule-dialog .e-start-container,
.e-bigger .e-schedule-dialog .e-start-time-zone-container,
.e-bigger .e-schedule-dialog .e-subject-container,
.e-bigger .e-schedule-dialog .e-description-row,
.e-bigger .e-schedule-dialog .e-repeat-container {
  padding-top: 0;
}

.e-bigger .e-schedule-dialog .e-all-day-time-zone-row {
  padding-bottom: 16px;
  padding-top: 10px;
}

.e-bigger .e-schedule-dialog .e-description,
.e-bigger .e-schedule-dialog .e-float-input .e-description {
  height: 50px;
}

.e-bigger .e-schedule-dialog .e-time-zone-row,
.e-bigger .e-schedule-dialog .e-repeat-container,
.e-bigger .e-schedule-dialog .e-input-group .e-input-group-icon.e-icon-disable {
  display: none;
}

.e-bigger .e-schedule-dialog .e-footer-content {
  padding-right: 26px;
}

.e-bigger .e-schedule-dialog.e-rtl .e-all-day-container {
  margin-left: 20px;
  margin-right: 0;
}

.e-bigger .e-schedule-dialog.e-rtl .e-subject-container,
.e-bigger .e-schedule-dialog.e-rtl .e-start-container,
.e-bigger .e-schedule-dialog.e-rtl .e-start-time-zone-container,
.e-bigger .e-schedule-dialog.e-rtl .e-description-label {
  padding-left: 12px;
  padding-right: 0;
}

.e-bigger .e-schedule-dialog.e-rtl .e-location-container,
.e-bigger .e-schedule-dialog.e-rtl .e-end-container,
.e-bigger .e-schedule-dialog.e-rtl .e-end-time-zone-container {
  padding-left: 0;
  padding-right: 12px;
}

.e-bigger .e-schedule-dialog.e-rtl .e-event-delete {
  float: right;
}

.e-schedule-dialog.e-device .e-dlg-header {
  width: 100%;
}

.e-schedule-dialog.e-device .e-dlg-header-content {
  background: #f4f4f4;
  box-shadow: none;
  margin-bottom: 0;
}

.e-schedule-dialog.e-device .e-title-location-row,
.e-schedule-dialog.e-device .e-start-end-row,
.e-schedule-dialog.e-device .e-time-zone-row,
.e-schedule-dialog.e-device .e-start-input-container,
.e-schedule-dialog.e-device .e-end-input-container {
  display: inline;
}

.e-schedule-dialog.e-device .e-time-zone-row.e-enable {
  display: inline;
}

.e-schedule-dialog.e-device .e-subject-container,
.e-schedule-dialog.e-device .e-location-container,
.e-schedule-dialog.e-device .e-start-container,
.e-schedule-dialog.e-device .e-end-container,
.e-schedule-dialog.e-device .e-start-time-zone-container,
.e-schedule-dialog.e-device .e-end-time-zone-container {
  padding-left: 0;
  width: 100%;
}

.e-schedule-dialog.e-device .e-subject-container,
.e-schedule-dialog.e-device .e-start-container,
.e-schedule-dialog.e-device .e-start-time-zone-container,
.e-schedule-dialog.e-device .e-description-label {
  padding-right: 0;
}

.e-schedule-dialog.e-device .e-location-container,
.e-schedule-dialog.e-device .e-end-container,
.e-schedule-dialog.e-device .e-end-time-zone-container,
.e-schedule-dialog.e-device .e-start-container,
.e-schedule-dialog.e-device .e-start-time-zone-container,
.e-schedule-dialog.e-device .e-subject-container,
.e-schedule-dialog.e-device .e-all-day-time-zone-row,
.e-schedule-dialog.e-device .e-description-row,
.e-schedule-dialog.e-device .e-repeat-container {
  padding-top: 20px;
}

.e-schedule-dialog.e-device .e-resources {
  padding-bottom: 0;
  padding-top: 20px;
}

.e-schedule-dialog.e-device .e-description,
.e-schedule-dialog.e-device .e-float-input .e-description {
  height: 60px;
}

.e-schedule-dialog.e-device .e-all-day-time-zone-row {
  margin-top: 0;
  padding-bottom: 0;
}

.e-schedule-dialog.e-device .e-repeat-parent-row {
  padding-top: 8px;
}

.e-schedule-dialog.e-device .e-all-day-container {
  margin-right: 20px;
}

.e-schedule-dialog.e-device .e-title-header {
  display: flex;
  width: 100%;
}

.e-schedule-dialog.e-device .e-save-icon,
.e-schedule-dialog.e-device .e-back-icon,
.e-schedule-dialog.e-device .e-forward-icon {
  cursor: pointer;
  line-height: normal;
}

.e-schedule-dialog.e-device .e-save-icon {
  text-align: right;
}

.e-schedule-dialog.e-device .e-time-zone-row,
.e-schedule-dialog.e-device .e-input-group .e-input-group-icon.e-icon-disable {
  display: none;
}

.e-schedule-dialog.e-device .e-repeat-container {
  display: block;
}

.e-schedule-dialog.e-device .e-icon-down-arrow {
  font-size: 12px;
}

.e-schedule-dialog.e-device.e-rtl .e-save-icon {
  text-align: left;
}

.e-schedule-dialog.e-device.e-rtl .e-all-day-container {
  margin-left: 20px;
  margin-right: 0;
}

.e-schedule-dialog.e-device.e-rtl .e-subject-container,
.e-schedule-dialog.e-device.e-rtl .e-start-container,
.e-schedule-dialog.e-device.e-rtl .e-start-time-zone-container,
.e-schedule-dialog.e-device.e-rtl .e-description-label {
  padding-left: 0;
}

.e-schedule-dialog.e-device.e-rtl .e-location-container,
.e-schedule-dialog.e-device.e-rtl .e-end-container,
.e-schedule-dialog.e-device.e-rtl .e-end-time-zone-container,
.e-schedule-dialog.e-device.e-rtl .e-all-day-container {
  padding-right: 0;
}

.e-schedule-dialog.e-device .e-recurrence-container {
  position: relative;
}

.e-schedule-dialog.e-device .e-recurrence-container.e-hide {
  display: none;
}

.e-schedule-dialog.e-device .e-recurrence-container .e-recurrence-edit-button {
  background: none;
  border: 0;
  box-shadow: none;
  margin: -3px 5px;
  position: absolute;
}

.e-schedule-dialog.e-device .e-recurrence-container .e-recurrence-edit-button .e-recurrence-edit.e-icons {
  font-size: 12px;
  position: relative;
  top: 1px;
}

/*! schedule quick popup */
.e-quick-popup-wrapper {
  background-color: #fff;
  border-radius: 2px;
  box-shadow: 0 24px 38px 3px rgba(0, 0, 0, 0.14), 0 9px 46px 8px rgba(0, 0, 0, 0.12), 0 11px 15px -7px rgba(0, 0, 0, 0.2);
  color: #333;
  max-width: 365px;
  min-width: 320px;
  opacity: 1;
  user-select: none;
  width: 100%;
  border: 1px solid #e0e0e0;
}

.e-quick-popup-wrapper .e-hidden {
  display: none;
}

.e-quick-popup-wrapper .e-cell-popup .e-popup-header .e-header-icon-wrapper {
  position: absolute;
  right: 6px;
  top: 4px;
}

.e-quick-popup-wrapper .e-cell-popup .e-popup-header .e-header-icon-wrapper .e-edit:focus, .e-quick-popup-wrapper .e-cell-popup .e-popup-header .e-header-icon-wrapper .e-edit:hover,
.e-quick-popup-wrapper .e-cell-popup .e-popup-header .e-header-icon-wrapper .e-delete:focus,
.e-quick-popup-wrapper .e-cell-popup .e-popup-header .e-header-icon-wrapper .e-delete:hover,
.e-quick-popup-wrapper .e-cell-popup .e-popup-header .e-header-icon-wrapper .e-close:focus,
.e-quick-popup-wrapper .e-cell-popup .e-popup-header .e-header-icon-wrapper .e-close:hover {
  background: #afafaf;
  color: #000;
}

.e-quick-popup-wrapper .e-cell-popup .e-popup-content {
  padding: 38px 18px 12px;
}

.e-quick-popup-wrapper .e-cell-popup .e-popup-content .e-popup-table {
  width: 100%;
}

.e-quick-popup-wrapper .e-cell-popup .e-popup-content .e-popup-table .e-schedule-form > span {
  margin-bottom: 4px;
}

.e-quick-popup-wrapper .e-cell-popup .e-popup-content .e-popup-table .e-subject {
  font-size: 22px;
  height: 40px;
}

.e-quick-popup-wrapper .e-event-popup .e-popup-header .e-header-icon-wrapper {
  padding: 5px 5px 2px;
}

.e-quick-popup-wrapper .e-event-popup .e-popup-header .e-header-icon-wrapper .e-edit,
.e-quick-popup-wrapper .e-event-popup .e-popup-header .e-header-icon-wrapper .e-delete {
  display: none;
}

.e-quick-popup-wrapper .e-event-popup .e-popup-header .e-header-icon-wrapper .e-close {
  position: relative;
  right: 2px;
}

.e-quick-popup-wrapper .e-event-popup .e-popup-header .e-header-icon-wrapper .e-edit:focus, .e-quick-popup-wrapper .e-event-popup .e-popup-header .e-header-icon-wrapper .e-edit:hover,
.e-quick-popup-wrapper .e-event-popup .e-popup-header .e-header-icon-wrapper .e-delete:focus,
.e-quick-popup-wrapper .e-event-popup .e-popup-header .e-header-icon-wrapper .e-delete:hover,
.e-quick-popup-wrapper .e-event-popup .e-popup-header .e-header-icon-wrapper .e-close:focus,
.e-quick-popup-wrapper .e-event-popup .e-popup-header .e-header-icon-wrapper .e-close:hover {
  background: #afafaf;
  color: #000;
}

.e-quick-popup-wrapper .e-event-popup .e-popup-header .e-header-icon-wrapper .e-edit-icon,
.e-quick-popup-wrapper .e-event-popup .e-popup-header .e-header-icon-wrapper .e-delete-icon,
.e-quick-popup-wrapper .e-event-popup .e-popup-header .e-header-icon-wrapper .e-close-icon {
  line-height: 0;
}

.e-quick-popup-wrapper .e-event-popup .e-popup-header .e-header-icon-wrapper .e-delete:disabled:hover {
  background: none;
}

.e-quick-popup-wrapper .e-event-popup .e-popup-header .e-header-icon-wrapper .e-delete:disabled > .e-delete-icon {
  opacity: .5;
}

.e-quick-popup-wrapper .e-event-popup .e-popup-header .e-subject-wrap {
  padding: 0 18px 8px;
}

.e-quick-popup-wrapper .e-event-popup .e-popup-header .e-subject-wrap .e-subject {
  cursor: default;
  font-size: 20px;
  font-weight: 500;
  line-height: 1.5;
  max-height: 87px;
  background-color: rgba(3, 155, 229, 0.3);
  border-left: 6px solid #3f3f3f;
  padding: 8px 0 8px 10px;
}

.e-quick-popup-wrapper .e-event-popup .e-popup-content {
  padding: 0 18px 16px 26px;
}

.e-quick-popup-wrapper .e-cell-popup .e-header-icon-wrapper,
.e-quick-popup-wrapper .e-event-popup .e-header-icon-wrapper {
  display: flex;
  justify-content: flex-end;
}

.e-quick-popup-wrapper .e-cell-popup .e-header-icon-wrapper .e-close .e-close-icon,
.e-quick-popup-wrapper .e-event-popup .e-header-icon-wrapper .e-close .e-close-icon {
  font-size: 11px;
}

.e-quick-popup-wrapper .e-cell-popup .e-header-icon-wrapper .e-edit,
.e-quick-popup-wrapper .e-cell-popup .e-header-icon-wrapper .e-delete,
.e-quick-popup-wrapper .e-cell-popup .e-header-icon-wrapper .e-close,
.e-quick-popup-wrapper .e-event-popup .e-header-icon-wrapper .e-edit,
.e-quick-popup-wrapper .e-event-popup .e-header-icon-wrapper .e-delete,
.e-quick-popup-wrapper .e-event-popup .e-header-icon-wrapper .e-close {
  background-color: transparent;
  border: 0;
}

.e-quick-popup-wrapper .e-cell-popup .e-date-time,
.e-quick-popup-wrapper .e-cell-popup .e-location,
.e-quick-popup-wrapper .e-cell-popup .e-time-zone,
.e-quick-popup-wrapper .e-cell-popup .e-description,
.e-quick-popup-wrapper .e-cell-popup .e-resource,
.e-quick-popup-wrapper .e-event-popup .e-date-time,
.e-quick-popup-wrapper .e-event-popup .e-location,
.e-quick-popup-wrapper .e-event-popup .e-time-zone,
.e-quick-popup-wrapper .e-event-popup .e-description,
.e-quick-popup-wrapper .e-event-popup .e-resource {
  color: #333;
  display: flex;
  padding-top: 12px;
}

.e-quick-popup-wrapper .e-cell-popup .e-date-time-icon,
.e-quick-popup-wrapper .e-cell-popup .e-location-icon,
.e-quick-popup-wrapper .e-cell-popup .e-time-zone-icon,
.e-quick-popup-wrapper .e-cell-popup .e-description-icon,
.e-quick-popup-wrapper .e-cell-popup .e-resource-icon,
.e-quick-popup-wrapper .e-event-popup .e-date-time-icon,
.e-quick-popup-wrapper .e-event-popup .e-location-icon,
.e-quick-popup-wrapper .e-event-popup .e-time-zone-icon,
.e-quick-popup-wrapper .e-event-popup .e-description-icon,
.e-quick-popup-wrapper .e-event-popup .e-resource-icon {
  color: #767676;
  font-size: 18px;
  padding-right: 13px;
  padding-top: 4px;
}

.e-quick-popup-wrapper .e-cell-popup .e-date-time-details,
.e-quick-popup-wrapper .e-cell-popup .e-location-details,
.e-quick-popup-wrapper .e-cell-popup .e-time-zone-details,
.e-quick-popup-wrapper .e-cell-popup .e-description-details,
.e-quick-popup-wrapper .e-cell-popup .e-resource-details,
.e-quick-popup-wrapper .e-event-popup .e-date-time-details,
.e-quick-popup-wrapper .e-event-popup .e-location-details,
.e-quick-popup-wrapper .e-event-popup .e-time-zone-details,
.e-quick-popup-wrapper .e-event-popup .e-description-details,
.e-quick-popup-wrapper .e-event-popup .e-resource-details {
  color: #333;
  cursor: default;
  font-size: 14px;
}

.e-quick-popup-wrapper .e-popup-table td:last-child {
  padding-top: 0;
}

.e-quick-popup-wrapper .e-popup-footer {
  display: block;
  padding: 8px 18px 8px 22px;
  text-align: right;
}

.e-quick-popup-wrapper .e-popup-footer .e-event-edit {
  margin-right: 8px;
}

.e-quick-popup-wrapper .e-popup-footer .e-event-delete {
  right: auto;
}

.e-quick-popup-wrapper .e-popup-footer .e-event-delete:disabled {
  color: rgba(51, 51, 51, 0.26);
}

.e-quick-popup-wrapper .e-popup-footer .e-event-details {
  border: none;
  margin-right: 8px;
  right: auto;
  text-transform: uppercase;
}

.e-quick-popup-wrapper.e-rtl .e-cell-popup .e-header-icon-wrapper {
  left: 6px;
  right: auto;
}

.e-quick-popup-wrapper.e-rtl .e-cell-popup .e-popup-footer {
  padding: 8px 18px 8px 8px;
  text-align: left;
}

.e-quick-popup-wrapper.e-rtl .e-popup-content .e-date-time-wrapper,
.e-quick-popup-wrapper.e-rtl .e-popup-content .e-location-details,
.e-quick-popup-wrapper.e-rtl .e-popup-content .e-time-zone-details,
.e-quick-popup-wrapper.e-rtl .e-popup-content .e-description-details,
.e-quick-popup-wrapper.e-rtl .e-popup-content .e-resource-details {
  margin-right: 10px;
}

.e-quick-popup-wrapper.e-device {
  bottom: 0;
  height: 100%;
  left: 0;
  margin: 0;
  max-width: 100%;
  overflow: hidden;
  padding: 0;
  right: 0;
  top: 0;
  width: 100%;
}

.e-quick-popup-wrapper.e-device .e-event-popup .e-popup-header .e-header-icon-wrapper {
  background-color: #f4f4f4;
}

.e-quick-popup-wrapper.e-device .e-event-popup .e-popup-header .e-header-icon-wrapper .e-close .e-close-icon {
  font-size: 12px;
}

.e-quick-popup-wrapper.e-device .e-event-popup .e-popup-header .e-header-icon-wrapper .e-edit:focus, .e-quick-popup-wrapper.e-device .e-event-popup .e-popup-header .e-header-icon-wrapper .e-edit:hover,
.e-quick-popup-wrapper.e-device .e-event-popup .e-popup-header .e-header-icon-wrapper .e-delete:focus,
.e-quick-popup-wrapper.e-device .e-event-popup .e-popup-header .e-header-icon-wrapper .e-delete:hover,
.e-quick-popup-wrapper.e-device .e-event-popup .e-popup-header .e-header-icon-wrapper .e-close:focus,
.e-quick-popup-wrapper.e-device .e-event-popup .e-popup-header .e-header-icon-wrapper .e-close:hover {
  background: none;
}

.e-quick-popup-wrapper.e-device .e-event-popup .e-popup-header .e-edit.e-btn.e-small.e-round,
.e-quick-popup-wrapper.e-device .e-event-popup .e-popup-header .e-delete.e-btn.e-small.e-round,
.e-quick-popup-wrapper.e-device .e-event-popup .e-popup-header .e-close.e-btn.e-small.e-round {
  height: 2.5em;
  width: 2.5em;
}

.e-quick-popup-wrapper.e-device .e-event-popup .e-popup-header .e-edit,
.e-quick-popup-wrapper.e-device .e-event-popup .e-popup-header .e-delete {
  display: block;
}

.e-quick-popup-wrapper.e-device .e-event-popup .e-popup-header .e-close {
  margin-left: 0;
  margin-right: auto;
  order: -1;
}

.e-quick-popup-wrapper.e-device .e-event-popup .e-popup-header .e-subject-wrap {
  padding: 12px 24px;
}

.e-quick-popup-wrapper.e-device .e-multiple-event-popup .e-popup-header {
  display: flex;
  padding: 15px;
}

.e-quick-popup-wrapper.e-device .e-multiple-event-popup .e-popup-header .e-close,
.e-quick-popup-wrapper.e-device .e-multiple-event-popup .e-popup-header .e-edit,
.e-quick-popup-wrapper.e-device .e-multiple-event-popup .e-popup-header .e-delete {
  background-color: transparent;
  border: 0;
  height: 40px;
  width: 40px;
}

.e-quick-popup-wrapper.e-device .e-multiple-event-popup .e-popup-header .e-close:focus, .e-quick-popup-wrapper.e-device .e-multiple-event-popup .e-popup-header .e-close:hover,
.e-quick-popup-wrapper.e-device .e-multiple-event-popup .e-popup-header .e-edit:focus,
.e-quick-popup-wrapper.e-device .e-multiple-event-popup .e-popup-header .e-edit:hover,
.e-quick-popup-wrapper.e-device .e-multiple-event-popup .e-popup-header .e-delete:focus,
.e-quick-popup-wrapper.e-device .e-multiple-event-popup .e-popup-header .e-delete:hover {
  background: none;
}

.e-quick-popup-wrapper.e-device .e-multiple-event-popup .e-popup-header .e-subject {
  font-size: 15px;
  height: 40px;
  line-height: 2.25;
  padding: 4px 5px;
  width: calc(100% - 95px);
}

.e-quick-popup-wrapper.e-device .e-multiple-event-popup .e-popup-header .e-close-icon,
.e-quick-popup-wrapper.e-device .e-multiple-event-popup .e-popup-header .e-edit-icon,
.e-quick-popup-wrapper.e-device .e-multiple-event-popup .e-popup-header .e-delete-icon {
  font-size: 14px;
}

.e-quick-popup-wrapper.e-device.e-rtl .e-event-popup .e-popup-header .e-close {
  margin-left: auto;
  margin-right: 0;
}

.e-bigger .e-quick-popup-wrapper .e-cell-popup .e-popup-content .e-popup-table .e-subject {
  font-size: 24px;
}

.e-bigger .e-quick-popup-wrapper .e-edit.e-btn.e-small.e-round,
.e-bigger .e-quick-popup-wrapper .e-delete.e-btn.e-small.e-round,
.e-bigger .e-quick-popup-wrapper .e-close.e-btn.e-small.e-round {
  height: 2em;
  width: 2em;
}

.e-bigger .e-quick-popup-wrapper.e-device .e-event-popup .e-popup-header .e-header-icon-wrapper .e-close .e-close-icon {
  font-size: 14px;
}

.e-bigger .e-quick-popup-wrapper.e-device .e-multiple-event-popup .e-popup-header .e-subject {
  padding: 0 5px 0 8px;
}

/*! schedule component theme */
.e-schedule {
  border: 1px solid #d0d0d0;
}

.e-schedule .e-date-header-wrap {
  border-color: #dadada;
  border-style: solid;
  border-width: 0;
}

.e-schedule .e-vertical-view .e-date-header-wrap table tbody td:first-child,
.e-schedule .e-vertical-view .e-content-wrap table td:first-child {
  border-left-width: 0;
}

.e-schedule .e-vertical-view .e-date-header-wrap .e-all-day-cells {
  background-color: #fff;
}

.e-schedule .e-vertical-view .e-date-header-wrap .e-all-day-cells:hover {
  background: #eaeaea;
}

.e-schedule .e-vertical-view .e-left-indent-wrap table tbody td {
  background-color: #fff;
  border-color: #dadada;
  border-style: solid;
  border-width: 0 1px 1px 0;
  color: #767676;
}

.e-schedule .e-vertical-view .e-left-indent-wrap table tbody td.e-header-cells {
  border-bottom-width: 0;
}

.e-schedule .e-vertical-view .e-left-indent-wrap table tbody td.e-header-cells.e-week-number {
  color: #767676;
  font-size: 13px;
  padding-top: 10px;
  text-align: center;
  vertical-align: top;
}

.e-schedule .e-vertical-view .e-left-indent-wrap table tbody td.e-resource-cells {
  border-bottom-color: transparent;
}

.e-schedule .e-vertical-view .e-date-header-wrap table tbody td {
  background-color: #fff;
  border-color: #dadada;
  border-style: solid;
  border-width: 0 0 1px 1px;
  color: #767676;
  text-align: left;
}

.e-schedule .e-vertical-view .e-date-header-wrap table tbody td.e-header-cells {
  border-bottom-width: 0;
}

.e-schedule .e-vertical-view .e-time-cells-wrap table td {
  background-color: #fff;
  border-color: #d0d0d0;
  border-style: solid;
  border-width: 0 1px 1px 0;
  color: #767676;
}

.e-schedule .e-vertical-view .e-time-cells-wrap table td {
  border-bottom-color: transparent;
}

.e-schedule .e-vertical-view .e-time-cells-wrap .e-time-cells {
  border-bottom-color: #d0d0d0;
}

.e-schedule .e-vertical-view .e-header-cells {
  background-color: #fff;
}

.e-schedule .e-vertical-view .e-header-cells.e-current-day {
  color: #3f3f3f;
}

.e-schedule .e-vertical-view .e-work-cells {
  background-color: #f8f8f8;
  border-color: #d0d0d0;
  border-style: solid;
  border-width: 0 0 1px 1px;
}

.e-schedule .e-vertical-view .e-work-cells:hover {
  background: #eaeaea;
  color: #333;
}

.e-schedule .e-vertical-view .e-alternate-cells {
  border-bottom-style: dotted;
}

.e-schedule .e-vertical-view .e-work-hours {
  background-color: #fff;
}

.e-schedule .e-vertical-view .e-all-day-cells {
  background-color: #fff;
}

.e-schedule .e-vertical-view .e-all-day-cells.e-current-day {
  color: #3f3f3f;
}

.e-schedule .e-vertical-view .e-all-day-cells.e-selected-cell {
  background-color: #afafaf;
  color: #333;
}

.e-schedule .e-vertical-view .e-all-day-cells.e-selected-cell:hover {
  background-color: #afafaf;
  border: #fff;
}

.e-schedule .e-vertical-view .e-selected-cell {
  background-color: #afafaf;
  color: #333;
}

.e-schedule .e-vertical-view .e-selected-cell:hover {
  background-color: #afafaf;
}

.e-schedule .e-vertical-view .e-clone-time-indicator,
.e-schedule .e-vertical-view .e-current-time {
  color: #3f3f3f;
}

.e-schedule .e-vertical-view .e-current-timeline {
  border-top: 1px solid #3f3f3f;
}

.e-schedule .e-vertical-view .e-previous-timeline {
  border-top: 1px dotted #3f3f3f;
}

.e-schedule .e-vertical-view.e-by-date .e-date-header-wrap table tbody td.e-header-cells {
  border-bottom-width: 1px;
}

.e-schedule .e-month-view .e-date-header-wrap table td:first-child,
.e-schedule .e-month-view .e-content-wrap table td:first-child {
  border-left-width: 0;
}

.e-schedule .e-month-view .e-date-header-wrap table td,
.e-schedule .e-month-agenda-view .e-date-header-wrap table td {
  background-color: #fff;
  border-color: #dadada;
  border-style: solid;
  border-width: 0 0 1px;
  color: #767676;
  text-align: left;
}

.e-schedule .e-month-view .e-date-header-wrap table td.e-current-day,
.e-schedule .e-month-agenda-view .e-date-header-wrap table td.e-current-day {
  color: #3f3f3f;
}

.e-schedule .e-month-view .e-work-cells,
.e-schedule .e-month-agenda-view .e-work-cells {
  background-color: #f8f8f8;
  border-color: #d0d0d0;
  border-style: solid;
  border-width: 0 0 1px;
  color: #333;
}

.e-schedule .e-month-view .e-work-cells:hover,
.e-schedule .e-month-agenda-view .e-work-cells:hover {
  background: #eaeaea;
  color: #333;
}

.e-schedule .e-month-view .e-work-days,
.e-schedule .e-month-agenda-view .e-work-days {
  background-color: #fff;
}

.e-schedule .e-month-view .e-other-month,
.e-schedule .e-month-agenda-view .e-other-month {
  color: #767676;
}

.e-schedule .e-month-view .e-current-date .e-date-header,
.e-schedule .e-month-agenda-view .e-current-date .e-date-header {
  background-color: #3f3f3f;
  border-radius: 50%;
  color: #fff;
  width: 20px;
}

.e-schedule .e-month-view .e-selected-cell,
.e-schedule .e-month-agenda-view .e-selected-cell {
  background-color: #afafaf;
  color: #333;
}

.e-schedule .e-month-view .e-selected-cell .e-more-indicator,
.e-schedule .e-month-agenda-view .e-selected-cell .e-more-indicator {
  color: #333;
}

.e-schedule .e-month-view .e-selected-cell:hover,
.e-schedule .e-month-agenda-view .e-selected-cell:hover {
  background-color: #afafaf;
}

.e-schedule .e-month-agenda-view .e-date-header-wrap table td {
  border-width: 0 0 1px 0;
  text-align: center;
}

.e-schedule .e-month-agenda-view .e-work-cells {
  border-width: 0;
}

.e-schedule .e-month-agenda-view .e-current-date .e-date-header {
  width: 24px;
}

.e-schedule .e-timeline-view .e-date-header-wrap table td:first-child,
.e-schedule .e-timeline-view .e-content-wrap table td:first-child,
.e-schedule .e-timeline-month-view .e-date-header-wrap table td:first-child,
.e-schedule .e-timeline-month-view .e-content-wrap table td:first-child {
  border-left-width: 0;
}

.e-schedule .e-timeline-view .e-content-wrap table tr:last-child td,
.e-schedule .e-timeline-month-view .e-content-wrap table tr:last-child td {
  border-bottom-width: 0;
}

.e-schedule .e-timeline-view .e-date-header-wrap table td,
.e-schedule .e-timeline-month-view .e-date-header-wrap table td {
  background-color: #fff;
  border-color: #dadada;
  border-style: solid;
  border-width: 0 0 1px 1px;
  color: #767676;
}

.e-schedule .e-timeline-view .e-date-header-wrap table td.e-current-day,
.e-schedule .e-timeline-month-view .e-date-header-wrap table td.e-current-day {
  color: #3f3f3f;
}

.e-schedule .e-timeline-view .e-work-cells,
.e-schedule .e-timeline-month-view .e-work-cells {
  background-color: #f8f8f8;
  border-color: #d0d0d0;
  border-style: solid;
  border-width: 0 0 1px 1px;
  color: #333;
}

.e-schedule .e-timeline-view .e-work-cells:hover:not(.e-resource-group-cells),
.e-schedule .e-timeline-month-view .e-work-cells:hover:not(.e-resource-group-cells) {
  background: #eaeaea;
  color: #333;
}

.e-schedule .e-timeline-view .e-work-days,
.e-schedule .e-timeline-month-view .e-work-days {
  background-color: #fff;
}

.e-schedule .e-timeline-view .e-resource-group-cells,
.e-schedule .e-timeline-month-view .e-resource-group-cells {
  background-color: #f8f8f8;
}

.e-schedule .e-timeline-view .e-selected-cell,
.e-schedule .e-timeline-month-view .e-selected-cell {
  background-color: #afafaf;
  color: #333;
}

.e-schedule .e-timeline-view .e-selected-cell:hover:not(.e-resource-group-cells),
.e-schedule .e-timeline-month-view .e-selected-cell:hover:not(.e-resource-group-cells) {
  background-color: #afafaf;
}

.e-schedule .e-timeline-view .e-work-hours {
  background-color: #fff;
}

.e-schedule .e-timeline-view .e-resource-group-cells {
  background-color: #f8f8f8;
}

.e-schedule .e-timeline-view .e-selected-cell {
  background-color: #afafaf;
  color: #333;
}

.e-schedule .e-timeline-view .e-selected-cell:hover {
  background-color: #afafaf;
}

.e-schedule .e-timeline-view .e-alternate-cells {
  border-left-style: dotted;
}

.e-schedule .e-timeline-view .e-header-row .e-time-cells {
  border-left-width: 0;
}

.e-schedule .e-timeline-view .e-clone-time-indicator,
.e-schedule .e-timeline-view .e-current-time {
  color: #3f3f3f;
  font-size: 12px;
}

.e-schedule .e-timeline-view .e-current-timeline {
  border-left: 1px solid #3f3f3f;
}

.e-schedule.e-rtl .e-vertical-view .e-date-header-wrap table tbody td:first-child,
.e-schedule.e-rtl .e-vertical-view .e-content-wrap table td:first-child {
  border-right-width: 0;
}

.e-schedule.e-rtl .e-vertical-view .e-date-header-wrap table tbody td,
.e-schedule.e-rtl .e-vertical-view .e-work-cells {
  border-width: 0 1px 1px 0;
}

.e-schedule.e-rtl .e-vertical-view .e-left-indent-wrap table tbody td,
.e-schedule.e-rtl .e-vertical-view .e-time-cells-wrap table tbody td {
  border-width: 0 0 1px 1px;
}

.e-schedule.e-rtl .e-month-view .e-date-header-wrap table td:first-child,
.e-schedule.e-rtl .e-month-view .e-content-wrap table td:first-child {
  border-right-width: 0;
}

.e-schedule.e-rtl .e-month-view .e-date-header-wrap table td {
  border-width: 0 0 1px;
}

.e-schedule.e-rtl .e-month-view .e-work-cells,
.e-schedule.e-rtl .e-month-agenda-view .e-work-cells {
  border-width: 0 0 1px;
}

.e-schedule.e-rtl .e-month-agenda-view .e-work-cells {
  border-width: 0;
}

.e-schedule.e-rtl .e-timeline-view .e-date-header-wrap table td:first-child,
.e-schedule.e-rtl .e-timeline-view .e-content-wrap table td:first-child,
.e-schedule.e-rtl .e-timeline-month-view .e-date-header-wrap table td:first-child,
.e-schedule.e-rtl .e-timeline-month-view .e-content-wrap table td:first-child {
  border-right-width: 0;
}

.e-schedule.e-rtl .e-timeline-view .e-date-header-wrap table td:last-child,
.e-schedule.e-rtl .e-timeline-view .e-content-wrap table td:last-child,
.e-schedule.e-rtl .e-timeline-month-view .e-date-header-wrap table td:last-child,
.e-schedule.e-rtl .e-timeline-month-view .e-content-wrap table td:last-child {
  border-left-width: 0;
}

.e-schedule.e-rtl .e-timeline-view .e-date-header-wrap table td,
.e-schedule.e-rtl .e-timeline-view .e-content-wrap table td,
.e-schedule.e-rtl .e-timeline-month-view .e-date-header-wrap table td,
.e-schedule.e-rtl .e-timeline-month-view .e-content-wrap table td {
  border-width: 0 1px 1px 0;
}

.e-schedule.e-rtl .e-timeline-view .e-alternate-cells {
  border-right-style: dotted;
}

.e-schedule.e-rtl .e-timeline-view .e-header-row .e-time-cells {
  border-right-width: 0;
}

.e-tooltip-wrap.e-schedule-error {
  background-color: #fcdbe4;
  border-color: #fcdbe4;
  z-index: 1000;
}

.e-tooltip-wrap.e-schedule-error .e-arrow-tip.e-tip-top {
  left: 44%;
}

.e-tooltip-wrap.e-schedule-error .e-arrow-tip-inner.e-tip-top,
.e-tooltip-wrap.e-schedule-error .e-arrow-tip-outer.e-tip-top {
  border-bottom: 8px solid #fcdbe4;
  color: #fcdbe4;
}

.e-tooltip-wrap.e-schedule-error .e-arrow-tip-outer.e-tip-bottom,
.e-tooltip-wrap.e-schedule-error .e-arrow-tip-inner.e-tip-bottom {
  border-top: 8px solid #fcdbe4;
  color: #fcdbe4;
}

.e-tooltip-wrap.e-schedule-error .e-tip-content {
  padding: 3px 6px;
}

.e-tooltip-wrap.e-schedule-error .e-tip-content,
.e-tooltip-wrap.e-schedule-error .e-tip-content label {
  color: #f44336;
}

.e-control.e-badge {
  background: #fafafa;
  border-color: transparent;
  border-radius: 0.25em;
  box-shadow: 0 0 0 2px transparent;
  box-sizing: border-box;
  color: rgba(0, 0, 0, 0.87);
  display: inline-block;
  font-family: "Segoe UI", "GeezaPro", "DejaVu Serif", sans-serif, "-apple-system", "BlinkMacSystemFont";
  font-size: 0.75em;
  font-weight: 500;
  line-height: 1;
  overflow: hidden;
  padding: 0.25em 0.4em 0.3em 0.4em;
  text-align: center;
  text-decoration: none;
  text-indent: 0;
  vertical-align: middle;
}

.e-control.e-badge:hover {
  text-decoration: none;
}

.e-control.e-badge.e-badge-pill {
  border-radius: 5em;
}

.e-control.e-badge.e-badge-notification {
  border-radius: 1em;
  font-size: 12px;
  height: 18px;
  left: 100%;
  line-height: 1.1;
  min-width: 24px;
  padding: 0.25em 0.4em 0.3em 0.4em;
  position: absolute;
  top: -10px;
  width: auto;
}

.e-control.e-badge.e-badge-notification.e-badge-ghost {
  line-height: 0.9;
}

.e-control.e-badge.e-badge-circle {
  border-radius: 50%;
  height: 1.834em;
  line-height: 1.8em;
  min-width: 0;
  padding: 0;
  width: 1.834em;
}

.e-control.e-badge.e-badge-circle.e-badge-ghost {
  line-height: 1.8em;
}

.e-control.e-badge.e-badge-overlap {
  position: absolute;
  top: -10px;
  transform: translateX(-50%);
}

.e-control.e-badge.e-badge-dot {
  border-radius: 100%;
  box-shadow: 0 0 0 1px #fff;
  height: 6px;
  left: 100%;
  line-height: 1;
  margin: 0;
  min-width: 0;
  overflow: visible;
  padding: 0;
  position: absolute;
  top: -3px;
  width: 6px;
}

.e-control.e-badge.e-badge-bottom.e-badge-dot {
  bottom: 3px;
  position: absolute;
  top: auto;
}

.e-control.e-badge.e-badge-bottom.e-badge-notification {
  bottom: -3px;
  position: absolute;
  top: auto;
}

button .e-badge {
  line-height: .9;
  position: relative;
  top: -2px;
}

button .e-badge.e-badge-circle {
  height: 2em;
  line-height: 2em;
  width: 2em;
}

button .e-badge.e-badge-circle.e-badge-ghost {
  line-height: 1.9em;
}

.e-control.e-badge.e-badge-primary:not(.e-badge-ghost):not([href]), .e-control.e-badge.e-badge-primary[href]:not(.e-badge-ghost) {
  background-color: #3f3f3f;
  color: #fff;
}

.e-control.e-badge.e-badge-secondary:not(.e-badge-ghost):not([href]), .e-control.e-badge.e-badge-secondary[href]:not(.e-badge-ghost) {
  background-color: #f4f4f4;
  color: #333;
}

.e-control.e-badge.e-badge-success:not(.e-badge-ghost):not([href]), .e-control.e-badge.e-badge-success[href]:not(.e-badge-ghost) {
  background-color: #107c10;
  color: #fff;
}

.e-control.e-badge.e-badge-danger:not(.e-badge-ghost):not([href]), .e-control.e-badge.e-badge-danger[href]:not(.e-badge-ghost) {
  background-color: #a80000;
  color: #fff;
}

.e-control.e-badge.e-badge-warning:not(.e-badge-ghost):not([href]), .e-control.e-badge.e-badge-warning[href]:not(.e-badge-ghost) {
  background-color: #d83b01;
  color: #fff;
}

.e-control.e-badge.e-badge-info:not(.e-badge-ghost):not([href]), .e-control.e-badge.e-badge-info[href]:not(.e-badge-ghost) {
  background-color: #0378d5;
  color: #fff;
}

.e-control.e-badge.e-badge-light:not(.e-badge-ghost):not([href]), .e-control.e-badge.e-badge-light[href]:not(.e-badge-ghost) {
  background-color: #fff;
  color: #333;
}

.e-control.e-badge.e-badge-dark:not(.e-badge-ghost):not([href]), .e-control.e-badge.e-badge-dark[href]:not(.e-badge-ghost) {
  background-color: #333;
  color: #fff;
}

.e-control.e-badge.e-badge-primary[href]:not(.e-badge-ghost):hover {
  background-color: #262626;
}

.e-control.e-badge.e-badge-secondary[href]:not(.e-badge-ghost):hover {
  background-color: #dbdbdb;
}

.e-control.e-badge.e-badge-success[href]:not(.e-badge-ghost):hover {
  background-color: #0a4f0a;
}

.e-control.e-badge.e-badge-danger[href]:not(.e-badge-ghost):hover {
  background-color: #750000;
}

.e-control.e-badge.e-badge-warning[href]:not(.e-badge-ghost):hover {
  background-color: #a52d01;
}

.e-control.e-badge.e-badge-info[href]:not(.e-badge-ghost):hover {
  background-color: #025ca3;
}

.e-control.e-badge.e-badge-light[href]:not(.e-badge-ghost):hover {
  background-color: #e6e6e6;
}

.e-control.e-badge.e-badge-dark[href]:not(.e-badge-ghost):hover {
  background-color: #1a1a1a;
}

.e-control.e-badge.e-badge-primary[href].e-badge-ghost:hover {
  border-color: #191919;
  color: #191919;
}

.e-control.e-badge.e-badge-secondary[href].e-badge-ghost:hover {
  border-color: #cecece;
  color: #cecece;
}

.e-control.e-badge.e-badge-success[href].e-badge-ghost:hover {
  border-color: #073807;
  color: #073807;
}

.e-control.e-badge.e-badge-danger[href].e-badge-ghost:hover {
  border-color: #5c0000;
  color: #5c0000;
}

.e-control.e-badge.e-badge-warning[href].e-badge-ghost:hover {
  border-color: #8c2601;
  color: #8c2601;
}

.e-control.e-badge.e-badge-info[href].e-badge-ghost:hover {
  border-color: #024e8a;
  color: #024e8a;
}

.e-control.e-badge.e-badge-light[href].e-badge-ghost:hover {
  border-color: #d9d9d9;
  color: #d9d9d9;
}

.e-control.e-badge.e-badge-dark[href].e-badge-ghost:hover {
  border-color: #0d0d0d;
  color: #0d0d0d;
}

.e-control.e-badge.e-badge-ghost.e-badge-primary {
  background-color: transparent;
  border: 1px solid #3f3f3f;
  color: #3f3f3f;
}

.e-control.e-badge.e-badge-ghost.e-badge-secondary {
  background-color: transparent;
  border: 1px solid #f4f4f4;
  color: #f4f4f4;
}

.e-control.e-badge.e-badge-ghost.e-badge-success {
  background-color: transparent;
  border: 1px solid #107c10;
  color: #107c10;
}

.e-control.e-badge.e-badge-ghost.e-badge-danger {
  background-color: transparent;
  border: 1px solid #a80000;
  color: #a80000;
}

.e-control.e-badge.e-badge-ghost.e-badge-warning {
  background-color: transparent;
  border: 1px solid #d83b01;
  color: #d83b01;
}

.e-control.e-badge.e-badge-ghost.e-badge-info {
  background-color: transparent;
  border: 1px solid #0378d5;
  color: #0378d5;
}

.e-control.e-badge.e-badge-ghost.e-badge-light {
  background-color: transparent;
  border: 1px solid #fff;
  color: #fff;
}

.e-control.e-badge.e-badge-ghost.e-badge-dark {
  background-color: transparent;
  border: 1px solid #333;
  color: #333;
}

.e-toast .e-toast-close-icon::before {
  content: "";
}

/*! toast layout */
.e-bigger .e-toast-container.e-toast-top-left,
.e-toast-container.e-bigger.e-toast-top-left {
  left: 10px;
  top: 10px;
}

.e-bigger .e-toast-container.e-toast-bottom-left,
.e-toast-container.e-bigger.e-toast-bottom-left {
  bottom: 10px;
  left: 10px;
}

.e-bigger .e-toast-container.e-toast-top-right,
.e-toast-container.e-bigger.e-toast-top-right {
  right: 10px;
  top: 10px;
}

.e-bigger .e-toast-container.e-toast-bottom-right,
.e-toast-container.e-bigger.e-toast-bottom-right {
  bottom: 10px;
  right: 10px;
}

.e-bigger .e-toast-container.e-toast-bottom-center,
.e-toast-container.e-bigger.e-toast-bottom-center {
  bottom: 10px;
}

.e-bigger .e-toast-container.e-toast-bottom-center .e-toast,
.e-toast-container.e-bigger.e-toast-bottom-center .e-toast {
  margin: 0 auto 10px;
}

.e-bigger .e-toast-container.e-toast-top-center,
.e-toast-container.e-bigger.e-toast-top-center {
  top: 10px;
}

.e-bigger .e-toast-container.e-toast-top-center .e-toast,
.e-toast-container.e-bigger.e-toast-top-center .e-toast {
  margin: 0 auto 10px;
}

.e-bigger .e-toast-container.e-toast-full-width,
.e-toast-container.e-bigger.e-toast-full-width {
  left: 0;
  right: 0;
}

.e-bigger .e-toast-container.e-toast-full-width .e-toast,
.e-toast-container.e-bigger.e-toast-full-width .e-toast {
  margin: 0 auto 10px;
}

.e-bigger .e-toast-container.e-rtl .e-toast .e-toast-message .e-toast-actions,
.e-toast-container.e-bigger.e-rtl .e-toast .e-toast-message .e-toast-actions {
  text-align: left;
}

.e-bigger .e-toast-container.e-rtl .e-toast .e-toast-message .e-toast-actions > *,
.e-toast-container.e-bigger.e-rtl .e-toast .e-toast-message .e-toast-actions > * {
  margin-left: initial;
  margin-right: 10px;
}

.e-bigger .e-toast-container.e-rtl .e-toast .e-toast-close-icon,
.e-toast-container.e-bigger.e-rtl .e-toast .e-toast-close-icon {
  margin-left: initial;
  margin-right: auto;
}

.e-bigger .e-toast-container.e-rtl .e-toast .e-toast-icon,
.e-toast-container.e-bigger.e-rtl .e-toast .e-toast-icon {
  margin-left: 8px;
  margin-right: initial;
}

.e-bigger .e-toast-container.e-rtl .e-toast .e-toast-progress,
.e-toast-container.e-bigger.e-rtl .e-toast .e-toast-progress {
  left: auto;
  right: 0;
}

.e-bigger .e-toast-container .e-toast,
.e-toast-container.e-bigger .e-toast {
  border-radius: 0;
  font-size: 14px;
  margin: 0 0 10px;
  min-height: 48px;
}

.e-bigger .e-toast-container .e-toast .e-toast-message .e-toast-content,
.e-toast-container.e-bigger .e-toast .e-toast-message .e-toast-content {
  padding: 8px 0 8px 0;
}

.e-bigger .e-toast-container .e-toast .e-toast-message .e-toast-content:first-child,
.e-toast-container.e-bigger .e-toast .e-toast-message .e-toast-content:first-child {
  padding: 0;
}

.e-bigger .e-toast-container .e-toast .e-toast-message .e-toast-content:last-child,
.e-toast-container.e-bigger .e-toast .e-toast-message .e-toast-content:last-child {
  padding-bottom: 0;
}

.e-bigger .e-toast-container .e-toast .e-toast-message .e-toast-content + .e-toast-actions,
.e-toast-container.e-bigger .e-toast .e-toast-message .e-toast-content + .e-toast-actions {
  padding: 0;
}

.e-bigger .e-toast-container .e-toast .e-toast-message .e-toast-actions,
.e-toast-container.e-bigger .e-toast .e-toast-message .e-toast-actions {
  padding: 8px 0 0 0;
  text-align: right;
}

.e-bigger .e-toast-container .e-toast .e-toast-message .e-toast-actions > *,
.e-toast-container.e-bigger .e-toast .e-toast-message .e-toast-actions > * {
  margin-left: 10px;
}

.e-bigger .e-toast-container .e-toast .e-toast-close-icon,
.e-toast-container.e-bigger .e-toast .e-toast-close-icon {
  font-size: 16px;
  height: 24px;
  width: 24px;
}

.e-bigger .e-toast-container .e-toast .e-toast-icon,
.e-toast-container.e-bigger .e-toast .e-toast-icon {
  font-size: 16px;
  height: 24px;
  margin-right: 8px;
  width: 24px;
}

.e-bigger .e-toast-container .e-toast .e-toast-progress,
.e-toast-container.e-bigger .e-toast .e-toast-progress {
  height: 2px;
}

.e-toast-container {
  display: inline-flex;
  flex-direction: column;
  position: relative;
}

.e-toast-container.e-toast-top-left {
  left: 10px;
  top: 10px;
}

.e-toast-container.e-toast-bottom-left {
  bottom: 10px;
  left: 10px;
}

.e-toast-container.e-toast-top-right {
  right: 10px;
  top: 10px;
}

.e-toast-container.e-toast-bottom-right {
  bottom: 10px;
  right: 10px;
}

.e-toast-container.e-toast-bottom-center {
  bottom: 10px;
  pointer-events: none;
  right: 0;
  width: 100%;
}

.e-toast-container.e-toast-bottom-center .e-toast {
  margin: 0 auto 10px;
  pointer-events: auto;
}

.e-toast-container.e-toast-top-center {
  pointer-events: none;
  right: 0;
  top: 10px;
  width: 100%;
}

.e-toast-container.e-toast-top-center .e-toast {
  margin: 0 auto 10px;
  pointer-events: auto;
}

.e-toast-container.e-toast-full-width {
  left: 0;
  right: 0;
  width: 100%;
}

.e-toast-container.e-toast-full-width .e-toast {
  margin: 0 auto 10px;
  width: 96%;
}

.e-toast-container.e-rtl .e-toast .e-toast-actions {
  text-align: left;
}

.e-toast-container.e-rtl .e-toast .e-toast-actions > * {
  margin-left: initial;
  margin-right: 10px;
}

.e-toast-container.e-rtl .e-toast .e-toast-close-icon {
  margin-left: initial;
  margin-right: auto;
}

.e-toast-container.e-rtl .e-toast .e-toast-icon {
  margin-left: 8px;
  margin-right: initial;
}

.e-toast-container.e-rtl .e-toast .e-toast-progress {
  left: auto;
  right: 0;
}

.e-toast-container .e-toast {
  border-radius: 0;
  display: inline-flex;
  font-size: 14px;
  margin: 0 0 10px;
  overflow: hidden;
  padding: 16px;
  position: relative;
}

.e-toast-container .e-toast .e-toast-icon,
.e-toast-container .e-toast .e-toast-message {
  display: inline-flex;
}

.e-toast-container .e-toast > * {
  word-break: break-word;
  word-wrap: break-word;
}

.e-toast-container .e-toast .e-toast-message {
  align-self: center;
  flex-direction: column;
  overflow: hidden;
  width: inherit;
}

.e-toast-container .e-toast .e-toast-message .e-toast-title,
.e-toast-container .e-toast .e-toast-message .e-toast-content {
  overflow: hidden;
  text-overflow: ellipsis;
}

.e-toast-container .e-toast .e-toast-message .e-toast-title:first-child,
.e-toast-container .e-toast .e-toast-message .e-toast-content:first-child {
  padding: 0;
}

.e-toast-container .e-toast .e-toast-message .e-toast-title:last-child,
.e-toast-container .e-toast .e-toast-message .e-toast-content:last-child {
  padding-bottom: 0;
}

.e-toast-container .e-toast .e-toast-message .e-toast-title > *,
.e-toast-container .e-toast .e-toast-message .e-toast-content > * {
  overflow: hidden;
  text-overflow: ellipsis;
}

.e-toast-container .e-toast .e-toast-message .e-toast-title {
  font-size: 14px;
  font-weight: bold;
  letter-spacing: .5px;
}

.e-toast-container .e-toast .e-toast-message .e-toast-content {
  padding: 8px 0 8px 0;
  word-break: break-word;
  word-wrap: break-word;
}

.e-toast-container .e-toast .e-toast-message .e-toast-content + .e-toast-actions {
  padding-top: 0;
}

.e-toast-container .e-toast .e-toast-message .e-toast-actions {
  margin: 1px;
  padding: 8px 0 0 0;
  text-align: right;
}

.e-toast-container .e-toast .e-toast-message .e-toast-actions > * {
  margin-left: 10px;
}

.e-toast-container .e-toast .e-toast-close-icon {
  align-items: center;
  cursor: pointer;
  display: flex;
  font-size: 16px;
  height: 24px;
  justify-content: center;
  margin-left: auto;
  width: 24px;
}

.e-toast-container .e-toast .e-toast-icon {
  align-items: center;
  font-size: 16px;
  height: 24px;
  justify-content: center;
  margin-right: 8px;
  width: 24px;
}

.e-toast-container .e-toast .e-toast-progress {
  bottom: 0;
  height: 2px;
  left: 0;
  position: absolute;
}

.e-toast-container .e-toast {
  background-color: #f4f4f4;
  box-shadow: 0 2px 5px 0 rgba(0, 0, 0, 0.26);
  color: #333;
}

.e-toast-container .e-toast.e-toast-success {
  background-color: #dff6dd;
  color: #333;
}

.e-toast-container .e-toast.e-toast-success .e-toast-message .e-toast-title {
  color: #333;
}

.e-toast-container .e-toast.e-toast-success .e-toast-message .e-toast-content {
  color: #333;
}

.e-toast-container .e-toast.e-toast-success .e-toast-icon {
  color: #107c10;
}

.e-toast-container .e-toast.e-toast-success:hover {
  background-color: #c5f3c1;
  box-shadow: 0 3px 6px 0 rgba(0, 0, 0, 0.26);
  color: #333;
}

.e-toast-container .e-toast.e-toast-info {
  background-color: #e1f5fe;
  color: #333;
}

.e-toast-container .e-toast.e-toast-info .e-toast-message .e-toast-title {
  color: #333;
}

.e-toast-container .e-toast.e-toast-info .e-toast-message .e-toast-content {
  color: #333;
}

.e-toast-container .e-toast.e-toast-info .e-toast-icon {
  color: #0277bd;
}

.e-toast-container .e-toast.e-toast-info:hover {
  background-color: #c9eefe;
  box-shadow: 0 3px 6px 0 rgba(0, 0, 0, 0.26);
  color: #333;
}

.e-toast-container .e-toast.e-toast-warning {
  background-color: #fff4ce;
  color: #333;
}

.e-toast-container .e-toast.e-toast-warning .e-toast-message .e-toast-title {
  color: #333;
}

.e-toast-container .e-toast.e-toast-warning .e-toast-message .e-toast-content {
  color: #333;
}

.e-toast-container .e-toast.e-toast-warning .e-toast-icon {
  color: #666;
}

.e-toast-container .e-toast.e-toast-warning:hover {
  background-color: #faebb7;
  box-shadow: 0 3px 6px 0 rgba(0, 0, 0, 0.26);
  color: #333;
}

.e-toast-container .e-toast.e-toast-danger {
  background-color: #fde7e9;
  color: #333;
}

.e-toast-container .e-toast.e-toast-danger .e-toast-message .e-toast-title {
  color: #333;
}

.e-toast-container .e-toast.e-toast-danger .e-toast-message .e-toast-content {
  color: #333;
}

.e-toast-container .e-toast.e-toast-danger .e-toast-icon {
  color: #a80000;
}

.e-toast-container .e-toast.e-toast-danger:hover {
  background-color: #f6cfd3;
  box-shadow: 0 3px 6px 0 rgba(0, 0, 0, 0.26);
  color: #333;
}

.e-toast-container .e-toast:hover {
  background-color: #f4f4f4;
  box-shadow: 0 3px 6px 0 rgba(0, 0, 0, 0.26);
}

.e-toast-container .e-toast .e-toast-icon {
  color: #333;
}

.e-toast-container .e-toast .e-toast-close-icon {
  color: #333;
}

.e-toast-container .e-toast .e-toast-message .e-toast-title {
  color: #333;
}

.e-toast-container .e-toast .e-toast-message .e-toast-content {
  color: #333;
}

.e-toast-container .e-toast .e-toast-progress {
  background-color: #3f3f3f;
}

.e-control .e-js [class^='e-'], .e-control .e-js [class*=' e-'] {
  box-sizing: content-box;
}
